<?xml version="1.0"?>
<net name="main_graph" version="11">
	<layers>
		<layer id="0" name="boxes" type="Parameter" version="opset1">
			<data shape="?,1,1,4" element_type="f32" />
			<output>
				<port id="0" precision="FP32" names="boxes">
					<dim>-1</dim>
					<dim>1</dim>
					<dim>1</dim>
					<dim>4</dim>
				</port>
			</output>
		</layer>
		<layer id="1" name="onnx::Expand_444_compressed" type="Const" version="opset1">
			<data element_type="f16" shape="1, 256, 1, 1" offset="0" size="512" />
			<output>
				<port id="0" precision="FP16" names="onnx::Expand_444">
					<dim>1</dim>
					<dim>256</dim>
					<dim>1</dim>
					<dim>1</dim>
				</port>
			</output>
		</layer>
		<layer id="2" name="onnx::Expand_444" type="Convert" version="opset1">
			<data destination_type="f32" />
			<rt_info>
				<attribute name="decompression" version="0" />
			</rt_info>
			<input>
				<port id="0" precision="FP16">
					<dim>1</dim>
					<dim>256</dim>
					<dim>1</dim>
					<dim>1</dim>
				</port>
			</input>
			<output>
				<port id="1" precision="FP32">
					<dim>1</dim>
					<dim>256</dim>
					<dim>1</dim>
					<dim>1</dim>
				</port>
			</output>
		</layer>
		<layer id="3" name="ShapeOf_58474" type="ShapeOf" version="opset3">
			<data output_type="i64" />
			<input>
				<port id="0" precision="FP32">
					<dim>-1</dim>
					<dim>1</dim>
					<dim>1</dim>
					<dim>4</dim>
				</port>
			</input>
			<output>
				<port id="1" precision="I64">
					<dim>4</dim>
				</port>
			</output>
		</layer>
		<layer id="4" name="Constant_58475" type="Const" version="opset1">
			<data element_type="i64" shape="1" offset="512" size="8" />
			<rt_info>
				<attribute name="precise" version="0" />
			</rt_info>
			<output>
				<port id="0" precision="I64">
					<dim>1</dim>
				</port>
			</output>
		</layer>
		<layer id="5" name="Constant_58476" type="Const" version="opset1">
			<data element_type="i64" shape="" offset="512" size="8" />
			<rt_info>
				<attribute name="precise" version="0" />
			</rt_info>
			<output>
				<port id="0" precision="I64" />
			</output>
		</layer>
		<layer id="6" name="Gather_58477" type="Gather" version="opset8">
			<data batch_dims="0" />
			<input>
				<port id="0" precision="I64">
					<dim>4</dim>
				</port>
				<port id="1" precision="I64">
					<dim>1</dim>
				</port>
				<port id="2" precision="I64" />
			</input>
			<output>
				<port id="3" precision="I64" names="/Gather_output_0,/Unsqueeze_19_output_0,/Unsqueeze_output_0">
					<dim>1</dim>
				</port>
			</output>
		</layer>
		<layer id="7" name="/Constant_123" type="Const" version="opset1">
			<data element_type="i64" shape="1" offset="520" size="8" />
			<rt_info>
				<attribute name="precise" version="0" />
			</rt_info>
			<output>
				<port id="0" precision="I64" names="/Constant_123_output_0">
					<dim>1</dim>
				</port>
			</output>
		</layer>
		<layer id="8" name="/Constant_124" type="Const" version="opset1">
			<data element_type="i64" shape="1" offset="528" size="8" />
			<rt_info>
				<attribute name="precise" version="0" />
			</rt_info>
			<output>
				<port id="0" precision="I64" names="/Constant_124_output_0">
					<dim>1</dim>
				</port>
			</output>
		</layer>
		<layer id="9" name="/Constant_125" type="Const" version="opset1">
			<data element_type="i64" shape="1" offset="528" size="8" />
			<rt_info>
				<attribute name="precise" version="0" />
			</rt_info>
			<output>
				<port id="0" precision="I64" names="/Constant_125_output_0">
					<dim>1</dim>
				</port>
			</output>
		</layer>
		<layer id="10" name="/Concat_15" type="Concat" version="opset1">
			<data axis="0" />
			<input>
				<port id="0" precision="I64">
					<dim>1</dim>
				</port>
				<port id="1" precision="I64">
					<dim>1</dim>
				</port>
				<port id="2" precision="I64">
					<dim>1</dim>
				</port>
				<port id="3" precision="I64">
					<dim>1</dim>
				</port>
			</input>
			<output>
				<port id="4" precision="I64" names="/Concat_15_output_0,/Reshape_15_output_0">
					<dim>4</dim>
				</port>
			</output>
		</layer>
		<layer id="11" name="/Mul_20" type="Const" version="opset1">
			<data element_type="i64" shape="4" offset="536" size="32" />
			<rt_info>
				<attribute name="precise" version="0" />
			</rt_info>
			<output>
				<port id="0" precision="I64" names="/Mul_20_output_0">
					<dim>4</dim>
				</port>
			</output>
		</layer>
		<layer id="12" name="/Equal_18" type="Equal" version="opset1">
			<data auto_broadcast="numpy" />
			<input>
				<port id="0" precision="I64">
					<dim>4</dim>
				</port>
				<port id="1" precision="I64">
					<dim>4</dim>
				</port>
			</input>
			<output>
				<port id="2" precision="BOOL" names="/Equal_18_output_0">
					<dim>4</dim>
				</port>
			</output>
		</layer>
		<layer id="13" name="/ConstantOfShape_19" type="Const" version="opset1">
			<data element_type="i64" shape="4" offset="568" size="32" />
			<rt_info>
				<attribute name="precise" version="0" />
			</rt_info>
			<output>
				<port id="0" precision="I64" names="/ConstantOfShape_19_output_0">
					<dim>4</dim>
				</port>
			</output>
		</layer>
		<layer id="14" name="/Where_18" type="Select" version="opset1">
			<data auto_broadcast="numpy" />
			<input>
				<port id="0" precision="BOOL">
					<dim>4</dim>
				</port>
				<port id="1" precision="I64">
					<dim>4</dim>
				</port>
				<port id="2" precision="I64">
					<dim>4</dim>
				</port>
			</input>
			<output>
				<port id="3" precision="I64" names="/Where_18_output_0">
					<dim>4</dim>
				</port>
			</output>
		</layer>
		<layer id="15" name="dense_embeddings" type="Broadcast" version="opset3">
			<data mode="bidirectional" />
			<input>
				<port id="0" precision="FP32">
					<dim>1</dim>
					<dim>256</dim>
					<dim>1</dim>
					<dim>1</dim>
				</port>
				<port id="1" precision="I64">
					<dim>4</dim>
				</port>
			</input>
			<output>
				<port id="2" precision="FP32" names="dense_embeddings">
					<dim>-1</dim>
					<dim>256</dim>
					<dim>64</dim>
					<dim>64</dim>
				</port>
			</output>
		</layer>
		<layer id="17" name="Constant_58278_compressed" type="Const" version="opset1">
			<data element_type="f16" shape="1, 1, 1, 1" offset="600" size="2" />
			<output>
				<port id="0" precision="FP16">
					<dim>1</dim>
					<dim>1</dim>
					<dim>1</dim>
					<dim>1</dim>
				</port>
			</output>
		</layer>
		<layer id="18" name="Constant_58278" type="Convert" version="opset1">
			<data destination_type="f32" />
			<rt_info>
				<attribute name="decompression" version="0" />
			</rt_info>
			<input>
				<port id="0" precision="FP16">
					<dim>1</dim>
					<dim>1</dim>
					<dim>1</dim>
					<dim>1</dim>
				</port>
			</input>
			<output>
				<port id="1" precision="FP32">
					<dim>1</dim>
					<dim>1</dim>
					<dim>1</dim>
					<dim>1</dim>
				</port>
			</output>
		</layer>
		<layer id="19" name="/Add" type="Add" version="opset1">
			<data auto_broadcast="numpy" />
			<input>
				<port id="0" precision="FP32">
					<dim>-1</dim>
					<dim>1</dim>
					<dim>1</dim>
					<dim>4</dim>
				</port>
				<port id="1" precision="FP32">
					<dim>1</dim>
					<dim>1</dim>
					<dim>1</dim>
					<dim>1</dim>
				</port>
			</input>
			<output>
				<port id="2" precision="FP32" names="/Add_output_0">
					<dim>-1</dim>
					<dim>1</dim>
					<dim>1</dim>
					<dim>4</dim>
				</port>
			</output>
		</layer>
		<layer id="20" name="/Constant_6" type="Const" version="opset1">
			<data element_type="i64" shape="3" offset="602" size="24" />
			<rt_info>
				<attribute name="precise" version="0" />
			</rt_info>
			<output>
				<port id="0" precision="I64" names="/Constant_6_output_0">
					<dim>3</dim>
				</port>
			</output>
		</layer>
		<layer id="21" name="/Reshape" type="Reshape" version="opset1">
			<data special_zero="true" />
			<input>
				<port id="0" precision="FP32">
					<dim>-1</dim>
					<dim>1</dim>
					<dim>1</dim>
					<dim>4</dim>
				</port>
				<port id="1" precision="I64">
					<dim>3</dim>
				</port>
			</input>
			<output>
				<port id="2" precision="FP32" names="/Reshape_output_0">
					<dim>-1</dim>
					<dim>2</dim>
					<dim>2</dim>
				</port>
			</output>
		</layer>
		<layer id="22" name="/Constant_9" type="Const" version="opset1">
			<data element_type="i64" shape="" offset="512" size="8" />
			<output>
				<port id="0" precision="I64" names="/Constant_9_output_0" />
			</output>
		</layer>
		<layer id="23" name="/Shape_2" type="ShapeOf" version="opset3">
			<data output_type="i64" />
			<input>
				<port id="0" precision="FP32">
					<dim>-1</dim>
					<dim>2</dim>
					<dim>2</dim>
				</port>
			</input>
			<output>
				<port id="1" precision="I64" names="/Shape_2_output_0,/Shape_3_output_0,/Shape_8_output_0">
					<dim>3</dim>
				</port>
			</output>
		</layer>
		<layer id="24" name="Constant_58470" type="Const" version="opset1">
			<data element_type="i64" shape="" offset="512" size="8" />
			<output>
				<port id="0" precision="I64" />
			</output>
		</layer>
		<layer id="25" name="Constant_58471" type="Const" version="opset1">
			<data element_type="i64" shape="" offset="512" size="8" />
			<output>
				<port id="0" precision="I64" />
			</output>
		</layer>
		<layer id="26" name="Gather_58472" type="Gather" version="opset8">
			<data batch_dims="0" />
			<input>
				<port id="0" precision="I64">
					<dim>3</dim>
				</port>
				<port id="1" precision="I64" />
				<port id="2" precision="I64" />
			</input>
			<output>
				<port id="3" precision="I64" names="/Cast_11_output_0,/Cast_2_output_0,/Cast_5_output_0,/Cast_7_output_0,/Cast_9_output_0,/Cast_output_0,/Gather_10_output_0,/Gather_13_output_0,/Gather_16_output_0,/Gather_19_output_0,/Gather_3_output_0,/Gather_7_output_0" />
			</output>
		</layer>
		<layer id="27" name="/Constant_10" type="Const" version="opset1">
			<data element_type="i64" shape="" offset="626" size="8" />
			<output>
				<port id="0" precision="I64" names="/Constant_10_output_0" />
			</output>
		</layer>
		<layer id="28" name="/Range" type="Range" version="opset4">
			<data output_type="i64" />
			<input>
				<port id="0" precision="I64" />
				<port id="1" precision="I64" />
				<port id="2" precision="I64" />
			</input>
			<output>
				<port id="3" precision="I64" names="/Range_10_output_0,/Range_2_output_0,/Range_4_output_0,/Range_6_output_0,/Range_8_output_0,/Range_output_0">
					<dim>-1</dim>
				</port>
			</output>
		</layer>
		<layer id="29" name="/Constant_15" type="Const" version="opset1">
			<data element_type="i64" shape="3" offset="634" size="24" />
			<rt_info>
				<attribute name="precise" version="0" />
			</rt_info>
			<output>
				<port id="0" precision="I64" names="/Constant_15_output_0">
					<dim>3</dim>
				</port>
			</output>
		</layer>
		<layer id="30" name="/Reshape_1" type="Reshape" version="opset1">
			<data special_zero="true" />
			<input>
				<port id="0" precision="I64">
					<dim>-1</dim>
				</port>
				<port id="1" precision="I64">
					<dim>3</dim>
				</port>
			</input>
			<output>
				<port id="2" precision="I64" names="/Add_6_output_0,/Add_8_output_0,/Reshape_11_output_0,/Reshape_13_output_0,/Reshape_1_output_0,/Reshape_4_output_0,/Reshape_7_output_0,/Reshape_9_output_0">
					<dim>-1</dim>
					<dim>1</dim>
					<dim>1</dim>
				</port>
			</output>
		</layer>
		<layer id="31" name="/Constant_12" type="Const" version="opset1">
			<data element_type="i64" shape="" offset="512" size="8" />
			<output>
				<port id="0" precision="I64" names="/Constant_12_output_0" />
			</output>
		</layer>
		<layer id="32" name="/Constant_11" type="Const" version="opset1">
			<data element_type="i64" shape="" offset="626" size="8" />
			<output>
				<port id="0" precision="I64" names="/Constant_11_output_0" />
			</output>
		</layer>
		<layer id="33" name="Constant_54076" type="Const" version="opset1">
			<data element_type="i64" shape="" offset="512" size="8" />
			<output>
				<port id="0" precision="I64" />
			</output>
		</layer>
		<layer id="34" name="/Gather_4" type="Gather" version="opset8">
			<data batch_dims="0" />
			<input>
				<port id="0" precision="I64">
					<dim>3</dim>
				</port>
				<port id="1" precision="I64" />
				<port id="2" precision="I64" />
			</input>
			<output>
				<port id="3" precision="I64" names="/Cast_1_output_0,/Gather_4_output_0" />
			</output>
		</layer>
		<layer id="35" name="/Constant_13" type="Const" version="opset1">
			<data element_type="i64" shape="" offset="626" size="8" />
			<output>
				<port id="0" precision="I64" names="/Constant_13_output_0" />
			</output>
		</layer>
		<layer id="36" name="/Range_1" type="Range" version="opset4">
			<data output_type="i64" />
			<input>
				<port id="0" precision="I64" />
				<port id="1" precision="I64" />
				<port id="2" precision="I64" />
			</input>
			<output>
				<port id="3" precision="I64" names="/Range_1_output_0">
					<dim>2</dim>
				</port>
			</output>
		</layer>
		<layer id="37" name="/Constant_16" type="Const" version="opset1">
			<data element_type="i64" shape="2" offset="658" size="16" />
			<rt_info>
				<attribute name="precise" version="0" />
			</rt_info>
			<output>
				<port id="0" precision="I64" names="/Constant_16_output_0">
					<dim>2</dim>
				</port>
			</output>
		</layer>
		<layer id="38" name="/Reshape_2" type="Reshape" version="opset1">
			<data special_zero="true" />
			<input>
				<port id="0" precision="I64">
					<dim>2</dim>
				</port>
				<port id="1" precision="I64">
					<dim>2</dim>
				</port>
			</input>
			<output>
				<port id="2" precision="I64" names="/Reshape_2_output_0">
					<dim>2</dim>
					<dim>1</dim>
				</port>
			</output>
		</layer>
		<layer id="39" name="/Add_1" type="Add" version="opset1">
			<data auto_broadcast="numpy" />
			<input>
				<port id="0" precision="I64">
					<dim>-1</dim>
					<dim>1</dim>
					<dim>1</dim>
				</port>
				<port id="1" precision="I64">
					<dim>2</dim>
					<dim>1</dim>
				</port>
			</input>
			<output>
				<port id="2" precision="I64" names="/Add_1_output_0,/Add_2_output_0">
					<dim>-1</dim>
					<dim>2</dim>
					<dim>1</dim>
				</port>
			</output>
		</layer>
		<layer id="40" name="/Shape_4" type="ShapeOf" version="opset3">
			<data output_type="i64" />
			<input>
				<port id="0" precision="I64">
					<dim>-1</dim>
					<dim>2</dim>
					<dim>1</dim>
				</port>
			</input>
			<output>
				<port id="1" precision="I64" names="/Concat_2_output_0,/Shape_4_output_0">
					<dim>3</dim>
				</port>
			</output>
		</layer>
		<layer id="41" name="/Mul" type="Const" version="opset1">
			<data element_type="i64" shape="3" offset="674" size="24" />
			<rt_info>
				<attribute name="precise" version="0" />
			</rt_info>
			<output>
				<port id="0" precision="I64" names="/Mul_1_output_0,/Mul_2_output_0,/Mul_output_0">
					<dim>3</dim>
				</port>
			</output>
		</layer>
		<layer id="42" name="/Equal" type="Equal" version="opset1">
			<data auto_broadcast="numpy" />
			<input>
				<port id="0" precision="I64">
					<dim>3</dim>
				</port>
				<port id="1" precision="I64">
					<dim>3</dim>
				</port>
			</input>
			<output>
				<port id="2" precision="BOOL" names="/Equal_1_output_0,/Equal_2_output_0,/Equal_output_0">
					<dim>3</dim>
				</port>
			</output>
		</layer>
		<layer id="43" name="/ConstantOfShape_1" type="Const" version="opset1">
			<data element_type="i64" shape="3" offset="698" size="24" />
			<rt_info>
				<attribute name="precise" version="0" />
			</rt_info>
			<output>
				<port id="0" precision="I64" names="/ConstantOfShape_1_output_0,/ConstantOfShape_2_output_0,/ConstantOfShape_3_output_0">
					<dim>3</dim>
				</port>
			</output>
		</layer>
		<layer id="44" name="/Where" type="Select" version="opset1">
			<data auto_broadcast="numpy" />
			<input>
				<port id="0" precision="BOOL">
					<dim>3</dim>
				</port>
				<port id="1" precision="I64">
					<dim>3</dim>
				</port>
				<port id="2" precision="I64">
					<dim>3</dim>
				</port>
			</input>
			<output>
				<port id="3" precision="I64" names="/Where_1_output_0,/Where_2_output_0,/Where_output_0">
					<dim>3</dim>
				</port>
			</output>
		</layer>
		<layer id="45" name="/Expand_1" type="Broadcast" version="opset3">
			<data mode="bidirectional" />
			<input>
				<port id="0" precision="I64">
					<dim>-1</dim>
					<dim>1</dim>
					<dim>1</dim>
				</port>
				<port id="1" precision="I64">
					<dim>3</dim>
				</port>
			</input>
			<output>
				<port id="2" precision="I64" names="/Expand_1_output_0">
					<dim>-1</dim>
					<dim>2</dim>
					<dim>1</dim>
				</port>
			</output>
		</layer>
		<layer id="46" name="/Constant_19" type="Const" version="opset1">
			<data element_type="i64" shape="1" offset="520" size="8" />
			<output>
				<port id="0" precision="I64" names="/Constant_19_output_0">
					<dim>1</dim>
				</port>
			</output>
		</layer>
		<layer id="47" name="/Unsqueeze_1" type="Unsqueeze" version="opset1">
			<input>
				<port id="0" precision="I64">
					<dim>-1</dim>
					<dim>2</dim>
					<dim>1</dim>
				</port>
				<port id="1" precision="I64">
					<dim>1</dim>
				</port>
			</input>
			<output>
				<port id="2" precision="I64" names="/Unsqueeze_1_output_0">
					<dim>-1</dim>
					<dim>2</dim>
					<dim>1</dim>
					<dim>1</dim>
				</port>
			</output>
		</layer>
		<layer id="48" name="/Expand_2" type="Broadcast" version="opset3">
			<data mode="bidirectional" />
			<input>
				<port id="0" precision="I64">
					<dim>2</dim>
					<dim>1</dim>
				</port>
				<port id="1" precision="I64">
					<dim>3</dim>
				</port>
			</input>
			<output>
				<port id="2" precision="I64" names="/Expand_2_output_0">
					<dim>-1</dim>
					<dim>2</dim>
					<dim>1</dim>
				</port>
			</output>
		</layer>
		<layer id="49" name="/Constant_21" type="Const" version="opset1">
			<data element_type="i64" shape="1" offset="520" size="8" />
			<output>
				<port id="0" precision="I64" names="/Constant_21_output_0">
					<dim>1</dim>
				</port>
			</output>
		</layer>
		<layer id="50" name="/Unsqueeze_2" type="Unsqueeze" version="opset1">
			<input>
				<port id="0" precision="I64">
					<dim>-1</dim>
					<dim>2</dim>
					<dim>1</dim>
				</port>
				<port id="1" precision="I64">
					<dim>1</dim>
				</port>
			</input>
			<output>
				<port id="2" precision="I64" names="/Unsqueeze_2_output_0">
					<dim>-1</dim>
					<dim>2</dim>
					<dim>1</dim>
					<dim>1</dim>
				</port>
			</output>
		</layer>
		<layer id="51" name="/Constant_14" type="Const" version="opset1">
			<data element_type="i64" shape="1" offset="512" size="8" />
			<output>
				<port id="0" precision="I64" names="/Constant_14_output_0">
					<dim>1</dim>
				</port>
			</output>
		</layer>
		<layer id="52" name="/Expand_3" type="Broadcast" version="opset3">
			<data mode="bidirectional" />
			<input>
				<port id="0" precision="I64">
					<dim>1</dim>
				</port>
				<port id="1" precision="I64">
					<dim>3</dim>
				</port>
			</input>
			<output>
				<port id="2" precision="I64" names="/Expand_3_output_0">
					<dim>-1</dim>
					<dim>2</dim>
					<dim>1</dim>
				</port>
			</output>
		</layer>
		<layer id="53" name="/Constant_23" type="Const" version="opset1">
			<data element_type="i64" shape="1" offset="520" size="8" />
			<output>
				<port id="0" precision="I64" names="/Constant_23_output_0">
					<dim>1</dim>
				</port>
			</output>
		</layer>
		<layer id="54" name="/Unsqueeze_3" type="Unsqueeze" version="opset1">
			<input>
				<port id="0" precision="I64">
					<dim>-1</dim>
					<dim>2</dim>
					<dim>1</dim>
				</port>
				<port id="1" precision="I64">
					<dim>1</dim>
				</port>
			</input>
			<output>
				<port id="2" precision="I64" names="/Unsqueeze_3_output_0">
					<dim>-1</dim>
					<dim>2</dim>
					<dim>1</dim>
					<dim>1</dim>
				</port>
			</output>
		</layer>
		<layer id="55" name="/Concat_1" type="Concat" version="opset1">
			<data axis="-1" />
			<input>
				<port id="0" precision="I64">
					<dim>-1</dim>
					<dim>2</dim>
					<dim>1</dim>
					<dim>1</dim>
				</port>
				<port id="1" precision="I64">
					<dim>-1</dim>
					<dim>2</dim>
					<dim>1</dim>
					<dim>1</dim>
				</port>
				<port id="2" precision="I64">
					<dim>-1</dim>
					<dim>2</dim>
					<dim>1</dim>
					<dim>1</dim>
				</port>
			</input>
			<output>
				<port id="3" precision="I64" names="/Concat_1_output_0">
					<dim>-1</dim>
					<dim>2</dim>
					<dim>1</dim>
					<dim>3</dim>
				</port>
			</output>
		</layer>
		<layer id="56" name="/Constant" type="Const" version="opset1">
			<data element_type="i64" shape="" offset="512" size="8" />
			<output>
				<port id="0" precision="I64" names="/Constant_output_0" />
			</output>
		</layer>
		<layer id="57" name="Constant_54049" type="Const" version="opset1">
			<data element_type="i64" shape="" offset="722" size="8" />
			<output>
				<port id="0" precision="I64" />
			</output>
		</layer>
		<layer id="58" name="/Gather_1" type="Gather" version="opset8">
			<data batch_dims="0" />
			<input>
				<port id="0" precision="FP32">
					<dim>-1</dim>
					<dim>2</dim>
					<dim>2</dim>
				</port>
				<port id="1" precision="I64" />
				<port id="2" precision="I64" />
			</input>
			<output>
				<port id="3" precision="FP32" names="/Gather_1_output_0,/Gather_2_output_0">
					<dim>-1</dim>
					<dim>2</dim>
				</port>
			</output>
		</layer>
		<layer id="59" name="Constant_58279_compressed" type="Const" version="opset1">
			<data element_type="f16" shape="1, 1" offset="730" size="2" />
			<output>
				<port id="0" precision="FP16">
					<dim>1</dim>
					<dim>1</dim>
				</port>
			</output>
		</layer>
		<layer id="60" name="Constant_58279" type="Convert" version="opset1">
			<data destination_type="f32" />
			<rt_info>
				<attribute name="decompression" version="0" />
			</rt_info>
			<input>
				<port id="0" precision="FP16">
					<dim>1</dim>
					<dim>1</dim>
				</port>
			</input>
			<output>
				<port id="1" precision="FP32">
					<dim>1</dim>
					<dim>1</dim>
				</port>
			</output>
		</layer>
		<layer id="61" name="/Div" type="Multiply" version="opset1">
			<data auto_broadcast="numpy" />
			<input>
				<port id="0" precision="FP32">
					<dim>-1</dim>
					<dim>2</dim>
				</port>
				<port id="1" precision="FP32">
					<dim>1</dim>
					<dim>1</dim>
				</port>
			</input>
			<output>
				<port id="2" precision="FP32" names="/Div_output_0">
					<dim>-1</dim>
					<dim>2</dim>
				</port>
			</output>
		</layer>
		<layer id="62" name="Constant_58039" type="Const" version="opset1">
			<data element_type="i64" shape="2" offset="732" size="16" />
			<rt_info>
				<attribute name="precise" version="0" />
			</rt_info>
			<output>
				<port id="0" precision="I64">
					<dim>2</dim>
				</port>
			</output>
		</layer>
		<layer id="63" name="Constant_58037" type="Const" version="opset1">
			<data element_type="i64" shape="" offset="512" size="8" />
			<rt_info>
				<attribute name="precise" version="0" />
			</rt_info>
			<output>
				<port id="0" precision="I64" />
			</output>
		</layer>
		<layer id="64" name="/Shape_1" type="Gather" version="opset1">
			<input>
				<port id="0" precision="I64">
					<dim>3</dim>
				</port>
				<port id="1" precision="I64">
					<dim>2</dim>
				</port>
				<port id="2" precision="I64" />
			</input>
			<output>
				<port id="3" precision="I64" names="/Shape_1_output_0">
					<dim>2</dim>
				</port>
			</output>
		</layer>
		<layer id="65" name="/Expand" type="Broadcast" version="opset3">
			<data mode="bidirectional" />
			<input>
				<port id="0" precision="FP32">
					<dim>-1</dim>
					<dim>2</dim>
				</port>
				<port id="1" precision="I64">
					<dim>2</dim>
				</port>
			</input>
			<output>
				<port id="2" precision="FP32" names="/Expand_output_0">
					<dim>-1</dim>
					<dim>2</dim>
				</port>
			</output>
		</layer>
		<layer id="66" name="Constant_58479" type="Const" version="opset1">
			<data element_type="i64" shape="3" offset="748" size="24" />
			<rt_info>
				<attribute name="precise" version="0" />
			</rt_info>
			<output>
				<port id="0" precision="I64">
					<dim>3</dim>
				</port>
			</output>
		</layer>
		<layer id="67" name="/Reshape_3" type="Reshape" version="opset1">
			<data special_zero="true" />
			<input>
				<port id="0" precision="FP32">
					<dim>-1</dim>
					<dim>2</dim>
				</port>
				<port id="1" precision="I64">
					<dim>3</dim>
				</port>
			</input>
			<output>
				<port id="2" precision="FP32" names="/Reshape_3_output_0">
					<dim>-1</dim>
					<dim>2</dim>
					<dim>1</dim>
				</port>
			</output>
		</layer>
		<layer id="68" name="/ScatterND" type="ScatterNDUpdate" version="opset4">
			<input>
				<port id="0" precision="FP32">
					<dim>-1</dim>
					<dim>2</dim>
					<dim>2</dim>
				</port>
				<port id="1" precision="I64">
					<dim>-1</dim>
					<dim>2</dim>
					<dim>1</dim>
					<dim>3</dim>
				</port>
				<port id="2" precision="FP32">
					<dim>-1</dim>
					<dim>2</dim>
					<dim>1</dim>
				</port>
			</input>
			<output>
				<port id="3" precision="FP32" names="/ScatterND_output_0">
					<dim>-1</dim>
					<dim>2</dim>
					<dim>2</dim>
				</port>
			</output>
		</layer>
		<layer id="69" name="/Constant_32" type="Const" version="opset1">
			<data element_type="i64" shape="" offset="512" size="8" />
			<output>
				<port id="0" precision="I64" names="/Constant_32_output_0" />
			</output>
		</layer>
		<layer id="70" name="/Shape_10" type="ShapeOf" version="opset3">
			<data output_type="i64" />
			<input>
				<port id="0" precision="FP32">
					<dim>-1</dim>
					<dim>2</dim>
					<dim>2</dim>
				</port>
			</input>
			<output>
				<port id="1" precision="I64" names="/Shape_10_output_0,/Shape_11_output_0,/Shape_16_output_0">
					<dim>3</dim>
				</port>
			</output>
		</layer>
		<layer id="71" name="/Constant_31" type="Const" version="opset1">
			<data element_type="i64" shape="" offset="626" size="8" />
			<output>
				<port id="0" precision="I64" names="/Constant_31_output_0" />
			</output>
		</layer>
		<layer id="72" name="Constant_54217" type="Const" version="opset1">
			<data element_type="i64" shape="" offset="512" size="8" />
			<output>
				<port id="0" precision="I64" />
			</output>
		</layer>
		<layer id="73" name="/Gather_8" type="Gather" version="opset8">
			<data batch_dims="0" />
			<input>
				<port id="0" precision="I64">
					<dim>3</dim>
				</port>
				<port id="1" precision="I64" />
				<port id="2" precision="I64" />
			</input>
			<output>
				<port id="3" precision="I64" names="/Cast_3_output_0,/Gather_8_output_0" />
			</output>
		</layer>
		<layer id="74" name="/Constant_33" type="Const" version="opset1">
			<data element_type="i64" shape="" offset="626" size="8" />
			<output>
				<port id="0" precision="I64" names="/Constant_33_output_0" />
			</output>
		</layer>
		<layer id="75" name="/Range_3" type="Range" version="opset4">
			<data output_type="i64" />
			<input>
				<port id="0" precision="I64" />
				<port id="1" precision="I64" />
				<port id="2" precision="I64" />
			</input>
			<output>
				<port id="3" precision="I64" names="/Range_3_output_0">
					<dim>2</dim>
				</port>
			</output>
		</layer>
		<layer id="76" name="/Constant_36" type="Const" version="opset1">
			<data element_type="i64" shape="2" offset="658" size="16" />
			<rt_info>
				<attribute name="precise" version="0" />
			</rt_info>
			<output>
				<port id="0" precision="I64" names="/Constant_36_output_0">
					<dim>2</dim>
				</port>
			</output>
		</layer>
		<layer id="77" name="/Reshape_5" type="Reshape" version="opset1">
			<data special_zero="true" />
			<input>
				<port id="0" precision="I64">
					<dim>2</dim>
				</port>
				<port id="1" precision="I64">
					<dim>2</dim>
				</port>
			</input>
			<output>
				<port id="2" precision="I64" names="/Reshape_5_output_0">
					<dim>2</dim>
					<dim>1</dim>
				</port>
			</output>
		</layer>
		<layer id="78" name="/Add_3" type="Add" version="opset1">
			<data auto_broadcast="numpy" />
			<input>
				<port id="0" precision="I64">
					<dim>-1</dim>
					<dim>1</dim>
					<dim>1</dim>
				</port>
				<port id="1" precision="I64">
					<dim>2</dim>
					<dim>1</dim>
				</port>
			</input>
			<output>
				<port id="2" precision="I64" names="/Add_3_output_0">
					<dim>-1</dim>
					<dim>2</dim>
					<dim>1</dim>
				</port>
			</output>
		</layer>
		<layer id="79" name="Constant_58280" type="Const" version="opset1">
			<data element_type="i64" shape="1, 1, 1" offset="626" size="8" />
			<output>
				<port id="0" precision="I64">
					<dim>1</dim>
					<dim>1</dim>
					<dim>1</dim>
				</port>
			</output>
		</layer>
		<layer id="80" name="/Add_4" type="Add" version="opset1">
			<data auto_broadcast="numpy" />
			<input>
				<port id="0" precision="I64">
					<dim>-1</dim>
					<dim>2</dim>
					<dim>1</dim>
				</port>
				<port id="1" precision="I64">
					<dim>1</dim>
					<dim>1</dim>
					<dim>1</dim>
				</port>
			</input>
			<output>
				<port id="2" precision="I64" names="/Add_4_output_0">
					<dim>-1</dim>
					<dim>2</dim>
					<dim>1</dim>
				</port>
			</output>
		</layer>
		<layer id="81" name="/Shape_12" type="ShapeOf" version="opset3">
			<data output_type="i64" />
			<input>
				<port id="0" precision="I64">
					<dim>-1</dim>
					<dim>2</dim>
					<dim>1</dim>
				</port>
			</input>
			<output>
				<port id="1" precision="I64" names="/Concat_4_output_0,/Shape_12_output_0">
					<dim>3</dim>
				</port>
			</output>
		</layer>
		<layer id="82" name="/Mul_3" type="Const" version="opset1">
			<data element_type="i64" shape="3" offset="674" size="24" />
			<rt_info>
				<attribute name="precise" version="0" />
			</rt_info>
			<output>
				<port id="0" precision="I64" names="/Mul_3_output_0,/Mul_4_output_0,/Mul_5_output_0">
					<dim>3</dim>
				</port>
			</output>
		</layer>
		<layer id="83" name="/Equal_3" type="Equal" version="opset1">
			<data auto_broadcast="numpy" />
			<input>
				<port id="0" precision="I64">
					<dim>3</dim>
				</port>
				<port id="1" precision="I64">
					<dim>3</dim>
				</port>
			</input>
			<output>
				<port id="2" precision="BOOL" names="/Equal_3_output_0,/Equal_4_output_0,/Equal_5_output_0">
					<dim>3</dim>
				</port>
			</output>
		</layer>
		<layer id="84" name="/ConstantOfShape_4" type="Const" version="opset1">
			<data element_type="i64" shape="3" offset="698" size="24" />
			<rt_info>
				<attribute name="precise" version="0" />
			</rt_info>
			<output>
				<port id="0" precision="I64" names="/ConstantOfShape_4_output_0,/ConstantOfShape_5_output_0,/ConstantOfShape_6_output_0">
					<dim>3</dim>
				</port>
			</output>
		</layer>
		<layer id="85" name="/Where_3" type="Select" version="opset1">
			<data auto_broadcast="numpy" />
			<input>
				<port id="0" precision="BOOL">
					<dim>3</dim>
				</port>
				<port id="1" precision="I64">
					<dim>3</dim>
				</port>
				<port id="2" precision="I64">
					<dim>3</dim>
				</port>
			</input>
			<output>
				<port id="3" precision="I64" names="/Where_3_output_0,/Where_4_output_0,/Where_5_output_0">
					<dim>3</dim>
				</port>
			</output>
		</layer>
		<layer id="86" name="/Expand_5" type="Broadcast" version="opset3">
			<data mode="bidirectional" />
			<input>
				<port id="0" precision="I64">
					<dim>-1</dim>
					<dim>1</dim>
					<dim>1</dim>
				</port>
				<port id="1" precision="I64">
					<dim>3</dim>
				</port>
			</input>
			<output>
				<port id="2" precision="I64" names="/Expand_5_output_0">
					<dim>-1</dim>
					<dim>2</dim>
					<dim>1</dim>
				</port>
			</output>
		</layer>
		<layer id="87" name="/Constant_39" type="Const" version="opset1">
			<data element_type="i64" shape="1" offset="520" size="8" />
			<output>
				<port id="0" precision="I64" names="/Constant_39_output_0">
					<dim>1</dim>
				</port>
			</output>
		</layer>
		<layer id="88" name="/Unsqueeze_4" type="Unsqueeze" version="opset1">
			<input>
				<port id="0" precision="I64">
					<dim>-1</dim>
					<dim>2</dim>
					<dim>1</dim>
				</port>
				<port id="1" precision="I64">
					<dim>1</dim>
				</port>
			</input>
			<output>
				<port id="2" precision="I64" names="/Unsqueeze_4_output_0">
					<dim>-1</dim>
					<dim>2</dim>
					<dim>1</dim>
					<dim>1</dim>
				</port>
			</output>
		</layer>
		<layer id="89" name="/Expand_6" type="Broadcast" version="opset3">
			<data mode="bidirectional" />
			<input>
				<port id="0" precision="I64">
					<dim>2</dim>
					<dim>1</dim>
				</port>
				<port id="1" precision="I64">
					<dim>3</dim>
				</port>
			</input>
			<output>
				<port id="2" precision="I64" names="/Expand_6_output_0">
					<dim>-1</dim>
					<dim>2</dim>
					<dim>1</dim>
				</port>
			</output>
		</layer>
		<layer id="90" name="/Constant_41" type="Const" version="opset1">
			<data element_type="i64" shape="1" offset="520" size="8" />
			<output>
				<port id="0" precision="I64" names="/Constant_41_output_0">
					<dim>1</dim>
				</port>
			</output>
		</layer>
		<layer id="91" name="/Unsqueeze_5" type="Unsqueeze" version="opset1">
			<input>
				<port id="0" precision="I64">
					<dim>-1</dim>
					<dim>2</dim>
					<dim>1</dim>
				</port>
				<port id="1" precision="I64">
					<dim>1</dim>
				</port>
			</input>
			<output>
				<port id="2" precision="I64" names="/Unsqueeze_5_output_0">
					<dim>-1</dim>
					<dim>2</dim>
					<dim>1</dim>
					<dim>1</dim>
				</port>
			</output>
		</layer>
		<layer id="92" name="/Constant_34" type="Const" version="opset1">
			<data element_type="i64" shape="1" offset="626" size="8" />
			<output>
				<port id="0" precision="I64" names="/Constant_34_output_0">
					<dim>1</dim>
				</port>
			</output>
		</layer>
		<layer id="93" name="/Expand_7" type="Broadcast" version="opset3">
			<data mode="bidirectional" />
			<input>
				<port id="0" precision="I64">
					<dim>1</dim>
				</port>
				<port id="1" precision="I64">
					<dim>3</dim>
				</port>
			</input>
			<output>
				<port id="2" precision="I64" names="/Expand_7_output_0">
					<dim>-1</dim>
					<dim>2</dim>
					<dim>1</dim>
				</port>
			</output>
		</layer>
		<layer id="94" name="/Constant_43" type="Const" version="opset1">
			<data element_type="i64" shape="1" offset="520" size="8" />
			<output>
				<port id="0" precision="I64" names="/Constant_43_output_0">
					<dim>1</dim>
				</port>
			</output>
		</layer>
		<layer id="95" name="/Unsqueeze_6" type="Unsqueeze" version="opset1">
			<input>
				<port id="0" precision="I64">
					<dim>-1</dim>
					<dim>2</dim>
					<dim>1</dim>
				</port>
				<port id="1" precision="I64">
					<dim>1</dim>
				</port>
			</input>
			<output>
				<port id="2" precision="I64" names="/Unsqueeze_6_output_0">
					<dim>-1</dim>
					<dim>2</dim>
					<dim>1</dim>
					<dim>1</dim>
				</port>
			</output>
		</layer>
		<layer id="96" name="/Concat_3" type="Concat" version="opset1">
			<data axis="-1" />
			<input>
				<port id="0" precision="I64">
					<dim>-1</dim>
					<dim>2</dim>
					<dim>1</dim>
					<dim>1</dim>
				</port>
				<port id="1" precision="I64">
					<dim>-1</dim>
					<dim>2</dim>
					<dim>1</dim>
					<dim>1</dim>
				</port>
				<port id="2" precision="I64">
					<dim>-1</dim>
					<dim>2</dim>
					<dim>1</dim>
					<dim>1</dim>
				</port>
			</input>
			<output>
				<port id="3" precision="I64" names="/Concat_3_output_0">
					<dim>-1</dim>
					<dim>2</dim>
					<dim>1</dim>
					<dim>3</dim>
				</port>
			</output>
		</layer>
		<layer id="97" name="/Constant_4" type="Const" version="opset1">
			<data element_type="i64" shape="" offset="626" size="8" />
			<output>
				<port id="0" precision="I64" names="/Constant_4_output_0" />
			</output>
		</layer>
		<layer id="98" name="Constant_54190" type="Const" version="opset1">
			<data element_type="i64" shape="" offset="722" size="8" />
			<output>
				<port id="0" precision="I64" />
			</output>
		</layer>
		<layer id="99" name="/Gather_5" type="Gather" version="opset8">
			<data batch_dims="0" />
			<input>
				<port id="0" precision="FP32">
					<dim>-1</dim>
					<dim>2</dim>
					<dim>2</dim>
				</port>
				<port id="1" precision="I64" />
				<port id="2" precision="I64" />
			</input>
			<output>
				<port id="3" precision="FP32" names="/Gather_5_output_0,/Gather_6_output_0">
					<dim>-1</dim>
					<dim>2</dim>
				</port>
			</output>
		</layer>
		<layer id="100" name="Constant_58281_compressed" type="Const" version="opset1">
			<data element_type="f16" shape="1, 1" offset="730" size="2" />
			<output>
				<port id="0" precision="FP16">
					<dim>1</dim>
					<dim>1</dim>
				</port>
			</output>
		</layer>
		<layer id="101" name="Constant_58281" type="Convert" version="opset1">
			<data destination_type="f32" />
			<rt_info>
				<attribute name="decompression" version="0" />
			</rt_info>
			<input>
				<port id="0" precision="FP16">
					<dim>1</dim>
					<dim>1</dim>
				</port>
			</input>
			<output>
				<port id="1" precision="FP32">
					<dim>1</dim>
					<dim>1</dim>
				</port>
			</output>
		</layer>
		<layer id="102" name="/Div_1" type="Multiply" version="opset1">
			<data auto_broadcast="numpy" />
			<input>
				<port id="0" precision="FP32">
					<dim>-1</dim>
					<dim>2</dim>
				</port>
				<port id="1" precision="FP32">
					<dim>1</dim>
					<dim>1</dim>
				</port>
			</input>
			<output>
				<port id="2" precision="FP32" names="/Div_1_output_0">
					<dim>-1</dim>
					<dim>2</dim>
				</port>
			</output>
		</layer>
		<layer id="103" name="Constant_58043" type="Const" version="opset1">
			<data element_type="i64" shape="2" offset="732" size="16" />
			<rt_info>
				<attribute name="precise" version="0" />
			</rt_info>
			<output>
				<port id="0" precision="I64">
					<dim>2</dim>
				</port>
			</output>
		</layer>
		<layer id="104" name="Constant_58041" type="Const" version="opset1">
			<data element_type="i64" shape="" offset="512" size="8" />
			<rt_info>
				<attribute name="precise" version="0" />
			</rt_info>
			<output>
				<port id="0" precision="I64" />
			</output>
		</layer>
		<layer id="105" name="/Shape_9" type="Gather" version="opset1">
			<input>
				<port id="0" precision="I64">
					<dim>3</dim>
				</port>
				<port id="1" precision="I64">
					<dim>2</dim>
				</port>
				<port id="2" precision="I64" />
			</input>
			<output>
				<port id="3" precision="I64" names="/Shape_9_output_0">
					<dim>2</dim>
				</port>
			</output>
		</layer>
		<layer id="106" name="/Expand_4" type="Broadcast" version="opset3">
			<data mode="bidirectional" />
			<input>
				<port id="0" precision="FP32">
					<dim>-1</dim>
					<dim>2</dim>
				</port>
				<port id="1" precision="I64">
					<dim>2</dim>
				</port>
			</input>
			<output>
				<port id="2" precision="FP32" names="/Expand_4_output_0">
					<dim>-1</dim>
					<dim>2</dim>
				</port>
			</output>
		</layer>
		<layer id="107" name="Constant_58480" type="Const" version="opset1">
			<data element_type="i64" shape="3" offset="748" size="24" />
			<rt_info>
				<attribute name="precise" version="0" />
			</rt_info>
			<output>
				<port id="0" precision="I64">
					<dim>3</dim>
				</port>
			</output>
		</layer>
		<layer id="108" name="/Reshape_6" type="Reshape" version="opset1">
			<data special_zero="true" />
			<input>
				<port id="0" precision="FP32">
					<dim>-1</dim>
					<dim>2</dim>
				</port>
				<port id="1" precision="I64">
					<dim>3</dim>
				</port>
			</input>
			<output>
				<port id="2" precision="FP32" names="/Reshape_6_output_0">
					<dim>-1</dim>
					<dim>2</dim>
					<dim>1</dim>
				</port>
			</output>
		</layer>
		<layer id="109" name="/ScatterND_1" type="ScatterNDUpdate" version="opset4">
			<input>
				<port id="0" precision="FP32">
					<dim>-1</dim>
					<dim>2</dim>
					<dim>2</dim>
				</port>
				<port id="1" precision="I64">
					<dim>-1</dim>
					<dim>2</dim>
					<dim>1</dim>
					<dim>3</dim>
				</port>
				<port id="2" precision="FP32">
					<dim>-1</dim>
					<dim>2</dim>
					<dim>1</dim>
				</port>
			</input>
			<output>
				<port id="3" precision="FP32" names="/Cast_4_output_0,/ScatterND_1_output_0">
					<dim>-1</dim>
					<dim>2</dim>
					<dim>2</dim>
				</port>
			</output>
		</layer>
		<layer id="110" name="Constant_58282_compressed" type="Const" version="opset1">
			<data element_type="f16" shape="1, 1, 1" offset="772" size="2" />
			<output>
				<port id="0" precision="FP16">
					<dim>1</dim>
					<dim>1</dim>
					<dim>1</dim>
				</port>
			</output>
		</layer>
		<layer id="111" name="Constant_58282" type="Convert" version="opset1">
			<data destination_type="f32" />
			<rt_info>
				<attribute name="decompression" version="0" />
			</rt_info>
			<input>
				<port id="0" precision="FP16">
					<dim>1</dim>
					<dim>1</dim>
					<dim>1</dim>
				</port>
			</input>
			<output>
				<port id="1" precision="FP32">
					<dim>1</dim>
					<dim>1</dim>
					<dim>1</dim>
				</port>
			</output>
		</layer>
		<layer id="112" name="/Mul_6" type="Multiply" version="opset1">
			<data auto_broadcast="numpy" />
			<input>
				<port id="0" precision="FP32">
					<dim>-1</dim>
					<dim>2</dim>
					<dim>2</dim>
				</port>
				<port id="1" precision="FP32">
					<dim>1</dim>
					<dim>1</dim>
					<dim>1</dim>
				</port>
			</input>
			<output>
				<port id="2" precision="FP32" names="/Mul_6_output_0">
					<dim>-1</dim>
					<dim>2</dim>
					<dim>2</dim>
				</port>
			</output>
		</layer>
		<layer id="113" name="Constant_58283_compressed" type="Const" version="opset1">
			<data element_type="f16" shape="1, 1, 1" offset="774" size="2" />
			<output>
				<port id="0" precision="FP16">
					<dim>1</dim>
					<dim>1</dim>
					<dim>1</dim>
				</port>
			</output>
		</layer>
		<layer id="114" name="Constant_58283" type="Convert" version="opset1">
			<data destination_type="f32" />
			<rt_info>
				<attribute name="decompression" version="0" />
			</rt_info>
			<input>
				<port id="0" precision="FP16">
					<dim>1</dim>
					<dim>1</dim>
					<dim>1</dim>
				</port>
			</input>
			<output>
				<port id="1" precision="FP32">
					<dim>1</dim>
					<dim>1</dim>
					<dim>1</dim>
				</port>
			</output>
		</layer>
		<layer id="115" name="/Sub" type="Add" version="opset1">
			<data auto_broadcast="numpy" />
			<input>
				<port id="0" precision="FP32">
					<dim>-1</dim>
					<dim>2</dim>
					<dim>2</dim>
				</port>
				<port id="1" precision="FP32">
					<dim>1</dim>
					<dim>1</dim>
					<dim>1</dim>
				</port>
			</input>
			<output>
				<port id="2" precision="FP32" names="/Sub_output_0">
					<dim>-1</dim>
					<dim>2</dim>
					<dim>2</dim>
				</port>
			</output>
		</layer>
		<layer id="116" name="Multiply_58174_compressed" type="Const" version="opset1">
			<data element_type="f16" shape="128, 2" offset="776" size="512" />
			<output>
				<port id="0" precision="FP16">
					<dim>128</dim>
					<dim>2</dim>
				</port>
			</output>
		</layer>
		<layer id="117" name="Multiply_58174" type="Convert" version="opset1">
			<data destination_type="f32" />
			<rt_info>
				<attribute name="decompression" version="0" />
			</rt_info>
			<input>
				<port id="0" precision="FP16">
					<dim>128</dim>
					<dim>2</dim>
				</port>
			</input>
			<output>
				<port id="1" precision="FP32">
					<dim>128</dim>
					<dim>2</dim>
				</port>
			</output>
		</layer>
		<layer id="118" name="/Mul_7" type="MatMul" version="opset1">
			<data transpose_a="false" transpose_b="true" />
			<input>
				<port id="0" precision="FP32">
					<dim>-1</dim>
					<dim>2</dim>
					<dim>2</dim>
				</port>
				<port id="1" precision="FP32">
					<dim>128</dim>
					<dim>2</dim>
				</port>
			</input>
			<output>
				<port id="2" precision="FP32" names="/Mul_7_output_0">
					<dim>-1</dim>
					<dim>2</dim>
					<dim>128</dim>
				</port>
			</output>
		</layer>
		<layer id="119" name="/Sin" type="Sin" version="opset1">
			<input>
				<port id="0" precision="FP32">
					<dim>-1</dim>
					<dim>2</dim>
					<dim>128</dim>
				</port>
			</input>
			<output>
				<port id="1" precision="FP32" names="/Sin_output_0">
					<dim>-1</dim>
					<dim>2</dim>
					<dim>128</dim>
				</port>
			</output>
		</layer>
		<layer id="120" name="/Cos" type="Cos" version="opset1">
			<input>
				<port id="0" precision="FP32">
					<dim>-1</dim>
					<dim>2</dim>
					<dim>128</dim>
				</port>
			</input>
			<output>
				<port id="1" precision="FP32" names="/Cos_output_0">
					<dim>-1</dim>
					<dim>2</dim>
					<dim>128</dim>
				</port>
			</output>
		</layer>
		<layer id="121" name="/Concat_5" type="Concat" version="opset1">
			<data axis="-1" />
			<input>
				<port id="0" precision="FP32">
					<dim>-1</dim>
					<dim>2</dim>
					<dim>128</dim>
				</port>
				<port id="1" precision="FP32">
					<dim>-1</dim>
					<dim>2</dim>
					<dim>128</dim>
				</port>
			</input>
			<output>
				<port id="2" precision="FP32" names="/Concat_5_output_0">
					<dim>-1</dim>
					<dim>2</dim>
					<dim>256</dim>
				</port>
			</output>
		</layer>
		<layer id="122" name="/Constant_54" type="Const" version="opset1">
			<data element_type="i64" shape="" offset="512" size="8" />
			<output>
				<port id="0" precision="I64" names="/Constant_54_output_0" />
			</output>
		</layer>
		<layer id="123" name="/Shape_18" type="ShapeOf" version="opset3">
			<data output_type="i64" />
			<input>
				<port id="0" precision="FP32">
					<dim>-1</dim>
					<dim>2</dim>
					<dim>256</dim>
				</port>
			</input>
			<output>
				<port id="1" precision="I64" names="/Shape_18_output_0,/Shape_19_output_0,/Shape_24_output_0">
					<dim>3</dim>
				</port>
			</output>
		</layer>
		<layer id="124" name="/Constant_53" type="Const" version="opset1">
			<data element_type="i64" shape="" offset="722" size="8" />
			<output>
				<port id="0" precision="I64" names="/Constant_53_output_0" />
			</output>
		</layer>
		<layer id="125" name="Constant_54366" type="Const" version="opset1">
			<data element_type="i64" shape="" offset="512" size="8" />
			<output>
				<port id="0" precision="I64" />
			</output>
		</layer>
		<layer id="126" name="/Gather_11" type="Gather" version="opset8">
			<data batch_dims="0" />
			<input>
				<port id="0" precision="I64">
					<dim>3</dim>
				</port>
				<port id="1" precision="I64" />
				<port id="2" precision="I64" />
			</input>
			<output>
				<port id="3" precision="I64" names="/Cast_6_output_0,/Gather_11_output_0" />
			</output>
		</layer>
		<layer id="127" name="/Constant_55" type="Const" version="opset1">
			<data element_type="i64" shape="" offset="626" size="8" />
			<output>
				<port id="0" precision="I64" names="/Constant_55_output_0" />
			</output>
		</layer>
		<layer id="128" name="/Range_5" type="Range" version="opset4">
			<data output_type="i64" />
			<input>
				<port id="0" precision="I64" />
				<port id="1" precision="I64" />
				<port id="2" precision="I64" />
			</input>
			<output>
				<port id="3" precision="I64" names="/Range_5_output_0">
					<dim>256</dim>
				</port>
			</output>
		</layer>
		<layer id="129" name="/Add_7" type="Add" version="opset1">
			<data auto_broadcast="numpy" />
			<input>
				<port id="0" precision="I64">
					<dim>-1</dim>
					<dim>1</dim>
					<dim>1</dim>
				</port>
				<port id="1" precision="I64">
					<dim>256</dim>
				</port>
			</input>
			<output>
				<port id="2" precision="I64" names="/Add_7_output_0">
					<dim>-1</dim>
					<dim>1</dim>
					<dim>256</dim>
				</port>
			</output>
		</layer>
		<layer id="130" name="/Shape_20" type="ShapeOf" version="opset3">
			<data output_type="i64" />
			<input>
				<port id="0" precision="I64">
					<dim>-1</dim>
					<dim>1</dim>
					<dim>256</dim>
				</port>
			</input>
			<output>
				<port id="1" precision="I64" names="/Concat_7_output_0,/Shape_20_output_0">
					<dim>3</dim>
				</port>
			</output>
		</layer>
		<layer id="131" name="/Mul_8" type="Const" version="opset1">
			<data element_type="i64" shape="3" offset="674" size="24" />
			<rt_info>
				<attribute name="precise" version="0" />
			</rt_info>
			<output>
				<port id="0" precision="I64" names="/Mul_10_output_0,/Mul_8_output_0,/Mul_9_output_0">
					<dim>3</dim>
				</port>
			</output>
		</layer>
		<layer id="132" name="/Equal_6" type="Equal" version="opset1">
			<data auto_broadcast="numpy" />
			<input>
				<port id="0" precision="I64">
					<dim>3</dim>
				</port>
				<port id="1" precision="I64">
					<dim>3</dim>
				</port>
			</input>
			<output>
				<port id="2" precision="BOOL" names="/Equal_6_output_0,/Equal_7_output_0,/Equal_8_output_0">
					<dim>3</dim>
				</port>
			</output>
		</layer>
		<layer id="133" name="/ConstantOfShape_7" type="Const" version="opset1">
			<data element_type="i64" shape="3" offset="698" size="24" />
			<rt_info>
				<attribute name="precise" version="0" />
			</rt_info>
			<output>
				<port id="0" precision="I64" names="/ConstantOfShape_7_output_0,/ConstantOfShape_8_output_0,/ConstantOfShape_9_output_0">
					<dim>3</dim>
				</port>
			</output>
		</layer>
		<layer id="134" name="/Where_6" type="Select" version="opset1">
			<data auto_broadcast="numpy" />
			<input>
				<port id="0" precision="BOOL">
					<dim>3</dim>
				</port>
				<port id="1" precision="I64">
					<dim>3</dim>
				</port>
				<port id="2" precision="I64">
					<dim>3</dim>
				</port>
			</input>
			<output>
				<port id="3" precision="I64" names="/Where_6_output_0,/Where_7_output_0,/Where_8_output_0">
					<dim>3</dim>
				</port>
			</output>
		</layer>
		<layer id="135" name="/Expand_9" type="Broadcast" version="opset3">
			<data mode="bidirectional" />
			<input>
				<port id="0" precision="I64">
					<dim>-1</dim>
					<dim>1</dim>
					<dim>1</dim>
				</port>
				<port id="1" precision="I64">
					<dim>3</dim>
				</port>
			</input>
			<output>
				<port id="2" precision="I64" names="/Expand_9_output_0">
					<dim>-1</dim>
					<dim>1</dim>
					<dim>256</dim>
				</port>
			</output>
		</layer>
		<layer id="136" name="/Constant_60" type="Const" version="opset1">
			<data element_type="i64" shape="1" offset="520" size="8" />
			<output>
				<port id="0" precision="I64" names="/Constant_60_output_0">
					<dim>1</dim>
				</port>
			</output>
		</layer>
		<layer id="137" name="/Unsqueeze_7" type="Unsqueeze" version="opset1">
			<input>
				<port id="0" precision="I64">
					<dim>-1</dim>
					<dim>1</dim>
					<dim>256</dim>
				</port>
				<port id="1" precision="I64">
					<dim>1</dim>
				</port>
			</input>
			<output>
				<port id="2" precision="I64" names="/Unsqueeze_7_output_0">
					<dim>-1</dim>
					<dim>1</dim>
					<dim>256</dim>
					<dim>1</dim>
				</port>
			</output>
		</layer>
		<layer id="138" name="/Constant_57" type="Const" version="opset1">
			<data element_type="i64" shape="1, 1" offset="512" size="8" />
			<output>
				<port id="0" precision="I64" names="/Constant_57_output_0">
					<dim>1</dim>
					<dim>1</dim>
				</port>
			</output>
		</layer>
		<layer id="139" name="/Expand_10" type="Broadcast" version="opset3">
			<data mode="bidirectional" />
			<input>
				<port id="0" precision="I64">
					<dim>1</dim>
					<dim>1</dim>
				</port>
				<port id="1" precision="I64">
					<dim>3</dim>
				</port>
			</input>
			<output>
				<port id="2" precision="I64" names="/Expand_10_output_0">
					<dim>-1</dim>
					<dim>1</dim>
					<dim>256</dim>
				</port>
			</output>
		</layer>
		<layer id="140" name="/Constant_62" type="Const" version="opset1">
			<data element_type="i64" shape="1" offset="520" size="8" />
			<output>
				<port id="0" precision="I64" names="/Constant_62_output_0">
					<dim>1</dim>
				</port>
			</output>
		</layer>
		<layer id="141" name="/Unsqueeze_8" type="Unsqueeze" version="opset1">
			<input>
				<port id="0" precision="I64">
					<dim>-1</dim>
					<dim>1</dim>
					<dim>256</dim>
				</port>
				<port id="1" precision="I64">
					<dim>1</dim>
				</port>
			</input>
			<output>
				<port id="2" precision="I64" names="/Unsqueeze_8_output_0">
					<dim>-1</dim>
					<dim>1</dim>
					<dim>256</dim>
					<dim>1</dim>
				</port>
			</output>
		</layer>
		<layer id="142" name="/Expand_11" type="Broadcast" version="opset3">
			<data mode="bidirectional" />
			<input>
				<port id="0" precision="I64">
					<dim>256</dim>
				</port>
				<port id="1" precision="I64">
					<dim>3</dim>
				</port>
			</input>
			<output>
				<port id="2" precision="I64" names="/Expand_11_output_0">
					<dim>-1</dim>
					<dim>1</dim>
					<dim>256</dim>
				</port>
			</output>
		</layer>
		<layer id="143" name="/Constant_64" type="Const" version="opset1">
			<data element_type="i64" shape="1" offset="520" size="8" />
			<output>
				<port id="0" precision="I64" names="/Constant_64_output_0">
					<dim>1</dim>
				</port>
			</output>
		</layer>
		<layer id="144" name="/Unsqueeze_9" type="Unsqueeze" version="opset1">
			<input>
				<port id="0" precision="I64">
					<dim>-1</dim>
					<dim>1</dim>
					<dim>256</dim>
				</port>
				<port id="1" precision="I64">
					<dim>1</dim>
				</port>
			</input>
			<output>
				<port id="2" precision="I64" names="/Unsqueeze_9_output_0">
					<dim>-1</dim>
					<dim>1</dim>
					<dim>256</dim>
					<dim>1</dim>
				</port>
			</output>
		</layer>
		<layer id="145" name="/Concat_6" type="Concat" version="opset1">
			<data axis="-1" />
			<input>
				<port id="0" precision="I64">
					<dim>-1</dim>
					<dim>1</dim>
					<dim>256</dim>
					<dim>1</dim>
				</port>
				<port id="1" precision="I64">
					<dim>-1</dim>
					<dim>1</dim>
					<dim>256</dim>
					<dim>1</dim>
				</port>
				<port id="2" precision="I64">
					<dim>-1</dim>
					<dim>1</dim>
					<dim>256</dim>
					<dim>1</dim>
				</port>
			</input>
			<output>
				<port id="3" precision="I64" names="/Concat_6_output_0">
					<dim>-1</dim>
					<dim>1</dim>
					<dim>256</dim>
					<dim>3</dim>
				</port>
			</output>
		</layer>
		<layer id="146" name="Constant_54342" type="Const" version="opset1">
			<data element_type="i64" shape="" offset="626" size="8" />
			<output>
				<port id="0" precision="I64" />
			</output>
		</layer>
		<layer id="147" name="/Gather_9" type="Gather" version="opset8">
			<data batch_dims="0" />
			<input>
				<port id="0" precision="FP32">
					<dim>-1</dim>
					<dim>2</dim>
					<dim>256</dim>
				</port>
				<port id="1" precision="I64" />
				<port id="2" precision="I64" />
			</input>
			<output>
				<port id="3" precision="FP32" names="/Gather_9_output_0">
					<dim>-1</dim>
					<dim>256</dim>
				</port>
			</output>
		</layer>
		<layer id="148" name="point_embeddings.2.weight_compressed" type="Const" version="opset1">
			<data element_type="f16" shape="1, 256" offset="1288" size="512" />
			<output>
				<port id="0" precision="FP16" names="point_embeddings.2.weight">
					<dim>1</dim>
					<dim>256</dim>
				</port>
			</output>
		</layer>
		<layer id="149" name="point_embeddings.2.weight" type="Convert" version="opset1">
			<data destination_type="f32" />
			<rt_info>
				<attribute name="decompression" version="0" />
			</rt_info>
			<input>
				<port id="0" precision="FP16">
					<dim>1</dim>
					<dim>256</dim>
				</port>
			</input>
			<output>
				<port id="1" precision="FP32">
					<dim>1</dim>
					<dim>256</dim>
				</port>
			</output>
		</layer>
		<layer id="150" name="/Add_5" type="Add" version="opset1">
			<data auto_broadcast="numpy" />
			<input>
				<port id="0" precision="FP32">
					<dim>-1</dim>
					<dim>256</dim>
				</port>
				<port id="1" precision="FP32">
					<dim>1</dim>
					<dim>256</dim>
				</port>
			</input>
			<output>
				<port id="2" precision="FP32" names="/Add_5_output_0">
					<dim>-1</dim>
					<dim>256</dim>
				</port>
			</output>
		</layer>
		<layer id="151" name="Constant_58047" type="Const" version="opset1">
			<data element_type="i64" shape="2" offset="1800" size="16" />
			<rt_info>
				<attribute name="precise" version="0" />
			</rt_info>
			<output>
				<port id="0" precision="I64">
					<dim>2</dim>
				</port>
			</output>
		</layer>
		<layer id="152" name="Constant_58045" type="Const" version="opset1">
			<data element_type="i64" shape="" offset="512" size="8" />
			<rt_info>
				<attribute name="precise" version="0" />
			</rt_info>
			<output>
				<port id="0" precision="I64" />
			</output>
		</layer>
		<layer id="153" name="/Shape_17" type="Gather" version="opset1">
			<input>
				<port id="0" precision="I64">
					<dim>3</dim>
				</port>
				<port id="1" precision="I64">
					<dim>2</dim>
				</port>
				<port id="2" precision="I64" />
			</input>
			<output>
				<port id="3" precision="I64" names="/Shape_17_output_0">
					<dim>2</dim>
				</port>
			</output>
		</layer>
		<layer id="154" name="/Expand_8" type="Broadcast" version="opset3">
			<data mode="bidirectional" />
			<input>
				<port id="0" precision="FP32">
					<dim>-1</dim>
					<dim>256</dim>
				</port>
				<port id="1" precision="I64">
					<dim>2</dim>
				</port>
			</input>
			<output>
				<port id="2" precision="FP32" names="/Expand_8_output_0">
					<dim>-1</dim>
					<dim>256</dim>
				</port>
			</output>
		</layer>
		<layer id="155" name="Constant_58481" type="Const" version="opset1">
			<data element_type="i64" shape="3" offset="1816" size="24" />
			<rt_info>
				<attribute name="precise" version="0" />
			</rt_info>
			<output>
				<port id="0" precision="I64">
					<dim>3</dim>
				</port>
			</output>
		</layer>
		<layer id="156" name="/Reshape_8" type="Reshape" version="opset1">
			<data special_zero="true" />
			<input>
				<port id="0" precision="FP32">
					<dim>-1</dim>
					<dim>256</dim>
				</port>
				<port id="1" precision="I64">
					<dim>3</dim>
				</port>
			</input>
			<output>
				<port id="2" precision="FP32" names="/Reshape_8_output_0">
					<dim>-1</dim>
					<dim>1</dim>
					<dim>256</dim>
				</port>
			</output>
		</layer>
		<layer id="157" name="/ScatterND_2" type="ScatterNDUpdate" version="opset4">
			<input>
				<port id="0" precision="FP32">
					<dim>-1</dim>
					<dim>2</dim>
					<dim>256</dim>
				</port>
				<port id="1" precision="I64">
					<dim>-1</dim>
					<dim>1</dim>
					<dim>256</dim>
					<dim>3</dim>
				</port>
				<port id="2" precision="FP32">
					<dim>-1</dim>
					<dim>1</dim>
					<dim>256</dim>
				</port>
			</input>
			<output>
				<port id="3" precision="FP32" names="/ScatterND_2_output_0">
					<dim>-1</dim>
					<dim>2</dim>
					<dim>256</dim>
				</port>
			</output>
		</layer>
		<layer id="158" name="/Constant_72" type="Const" version="opset1">
			<data element_type="i64" shape="" offset="512" size="8" />
			<output>
				<port id="0" precision="I64" names="/Constant_72_output_0" />
			</output>
		</layer>
		<layer id="159" name="/Shape_26" type="ShapeOf" version="opset3">
			<data output_type="i64" />
			<input>
				<port id="0" precision="FP32">
					<dim>-1</dim>
					<dim>2</dim>
					<dim>256</dim>
				</port>
			</input>
			<output>
				<port id="1" precision="I64" names="/Shape_26_output_0,/Shape_27_output_0,/Shape_32_output_0">
					<dim>3</dim>
				</port>
			</output>
		</layer>
		<layer id="160" name="/Constant_71" type="Const" version="opset1">
			<data element_type="i64" shape="" offset="722" size="8" />
			<output>
				<port id="0" precision="I64" names="/Constant_71_output_0" />
			</output>
		</layer>
		<layer id="161" name="Constant_54501" type="Const" version="opset1">
			<data element_type="i64" shape="" offset="512" size="8" />
			<output>
				<port id="0" precision="I64" />
			</output>
		</layer>
		<layer id="162" name="/Gather_14" type="Gather" version="opset8">
			<data batch_dims="0" />
			<input>
				<port id="0" precision="I64">
					<dim>3</dim>
				</port>
				<port id="1" precision="I64" />
				<port id="2" precision="I64" />
			</input>
			<output>
				<port id="3" precision="I64" names="/Cast_8_output_0,/Gather_14_output_0" />
			</output>
		</layer>
		<layer id="163" name="/Constant_73" type="Const" version="opset1">
			<data element_type="i64" shape="" offset="626" size="8" />
			<output>
				<port id="0" precision="I64" names="/Constant_73_output_0" />
			</output>
		</layer>
		<layer id="164" name="/Range_7" type="Range" version="opset4">
			<data output_type="i64" />
			<input>
				<port id="0" precision="I64" />
				<port id="1" precision="I64" />
				<port id="2" precision="I64" />
			</input>
			<output>
				<port id="3" precision="I64" names="/Range_7_output_0">
					<dim>256</dim>
				</port>
			</output>
		</layer>
		<layer id="165" name="/Add_9" type="Add" version="opset1">
			<data auto_broadcast="numpy" />
			<input>
				<port id="0" precision="I64">
					<dim>-1</dim>
					<dim>1</dim>
					<dim>1</dim>
				</port>
				<port id="1" precision="I64">
					<dim>256</dim>
				</port>
			</input>
			<output>
				<port id="2" precision="I64" names="/Add_9_output_0">
					<dim>-1</dim>
					<dim>1</dim>
					<dim>256</dim>
				</port>
			</output>
		</layer>
		<layer id="166" name="/Shape_28" type="ShapeOf" version="opset3">
			<data output_type="i64" />
			<input>
				<port id="0" precision="I64">
					<dim>-1</dim>
					<dim>1</dim>
					<dim>256</dim>
				</port>
			</input>
			<output>
				<port id="1" precision="I64" names="/Concat_9_output_0,/Shape_28_output_0">
					<dim>3</dim>
				</port>
			</output>
		</layer>
		<layer id="167" name="/Mul_11" type="Const" version="opset1">
			<data element_type="i64" shape="3" offset="674" size="24" />
			<rt_info>
				<attribute name="precise" version="0" />
			</rt_info>
			<output>
				<port id="0" precision="I64" names="/Mul_11_output_0,/Mul_12_output_0,/Mul_13_output_0">
					<dim>3</dim>
				</port>
			</output>
		</layer>
		<layer id="168" name="/Equal_9" type="Equal" version="opset1">
			<data auto_broadcast="numpy" />
			<input>
				<port id="0" precision="I64">
					<dim>3</dim>
				</port>
				<port id="1" precision="I64">
					<dim>3</dim>
				</port>
			</input>
			<output>
				<port id="2" precision="BOOL" names="/Equal_10_output_0,/Equal_11_output_0,/Equal_9_output_0">
					<dim>3</dim>
				</port>
			</output>
		</layer>
		<layer id="169" name="/ConstantOfShape_10" type="Const" version="opset1">
			<data element_type="i64" shape="3" offset="698" size="24" />
			<rt_info>
				<attribute name="precise" version="0" />
			</rt_info>
			<output>
				<port id="0" precision="I64" names="/ConstantOfShape_10_output_0,/ConstantOfShape_11_output_0,/ConstantOfShape_12_output_0">
					<dim>3</dim>
				</port>
			</output>
		</layer>
		<layer id="170" name="/Where_9" type="Select" version="opset1">
			<data auto_broadcast="numpy" />
			<input>
				<port id="0" precision="BOOL">
					<dim>3</dim>
				</port>
				<port id="1" precision="I64">
					<dim>3</dim>
				</port>
				<port id="2" precision="I64">
					<dim>3</dim>
				</port>
			</input>
			<output>
				<port id="3" precision="I64" names="/Where_10_output_0,/Where_11_output_0,/Where_9_output_0">
					<dim>3</dim>
				</port>
			</output>
		</layer>
		<layer id="171" name="/Expand_13" type="Broadcast" version="opset3">
			<data mode="bidirectional" />
			<input>
				<port id="0" precision="I64">
					<dim>-1</dim>
					<dim>1</dim>
					<dim>1</dim>
				</port>
				<port id="1" precision="I64">
					<dim>3</dim>
				</port>
			</input>
			<output>
				<port id="2" precision="I64" names="/Expand_13_output_0">
					<dim>-1</dim>
					<dim>1</dim>
					<dim>256</dim>
				</port>
			</output>
		</layer>
		<layer id="172" name="/Constant_78" type="Const" version="opset1">
			<data element_type="i64" shape="1" offset="520" size="8" />
			<output>
				<port id="0" precision="I64" names="/Constant_78_output_0">
					<dim>1</dim>
				</port>
			</output>
		</layer>
		<layer id="173" name="/Unsqueeze_10" type="Unsqueeze" version="opset1">
			<input>
				<port id="0" precision="I64">
					<dim>-1</dim>
					<dim>1</dim>
					<dim>256</dim>
				</port>
				<port id="1" precision="I64">
					<dim>1</dim>
				</port>
			</input>
			<output>
				<port id="2" precision="I64" names="/Unsqueeze_10_output_0">
					<dim>-1</dim>
					<dim>1</dim>
					<dim>256</dim>
					<dim>1</dim>
				</port>
			</output>
		</layer>
		<layer id="174" name="/Constant_75" type="Const" version="opset1">
			<data element_type="i64" shape="1, 1" offset="512" size="8" />
			<output>
				<port id="0" precision="I64" names="/Constant_75_output_0">
					<dim>1</dim>
					<dim>1</dim>
				</port>
			</output>
		</layer>
		<layer id="175" name="/Expand_14" type="Broadcast" version="opset3">
			<data mode="bidirectional" />
			<input>
				<port id="0" precision="I64">
					<dim>1</dim>
					<dim>1</dim>
				</port>
				<port id="1" precision="I64">
					<dim>3</dim>
				</port>
			</input>
			<output>
				<port id="2" precision="I64" names="/Expand_14_output_0">
					<dim>-1</dim>
					<dim>1</dim>
					<dim>256</dim>
				</port>
			</output>
		</layer>
		<layer id="176" name="/Constant_80" type="Const" version="opset1">
			<data element_type="i64" shape="1" offset="520" size="8" />
			<output>
				<port id="0" precision="I64" names="/Constant_80_output_0">
					<dim>1</dim>
				</port>
			</output>
		</layer>
		<layer id="177" name="/Unsqueeze_11" type="Unsqueeze" version="opset1">
			<input>
				<port id="0" precision="I64">
					<dim>-1</dim>
					<dim>1</dim>
					<dim>256</dim>
				</port>
				<port id="1" precision="I64">
					<dim>1</dim>
				</port>
			</input>
			<output>
				<port id="2" precision="I64" names="/Unsqueeze_11_output_0">
					<dim>-1</dim>
					<dim>1</dim>
					<dim>256</dim>
					<dim>1</dim>
				</port>
			</output>
		</layer>
		<layer id="178" name="/Expand_15" type="Broadcast" version="opset3">
			<data mode="bidirectional" />
			<input>
				<port id="0" precision="I64">
					<dim>256</dim>
				</port>
				<port id="1" precision="I64">
					<dim>3</dim>
				</port>
			</input>
			<output>
				<port id="2" precision="I64" names="/Expand_15_output_0">
					<dim>-1</dim>
					<dim>1</dim>
					<dim>256</dim>
				</port>
			</output>
		</layer>
		<layer id="179" name="/Constant_82" type="Const" version="opset1">
			<data element_type="i64" shape="1" offset="520" size="8" />
			<output>
				<port id="0" precision="I64" names="/Constant_82_output_0">
					<dim>1</dim>
				</port>
			</output>
		</layer>
		<layer id="180" name="/Unsqueeze_12" type="Unsqueeze" version="opset1">
			<input>
				<port id="0" precision="I64">
					<dim>-1</dim>
					<dim>1</dim>
					<dim>256</dim>
				</port>
				<port id="1" precision="I64">
					<dim>1</dim>
				</port>
			</input>
			<output>
				<port id="2" precision="I64" names="/Unsqueeze_12_output_0">
					<dim>-1</dim>
					<dim>1</dim>
					<dim>256</dim>
					<dim>1</dim>
				</port>
			</output>
		</layer>
		<layer id="181" name="/Concat_8" type="Concat" version="opset1">
			<data axis="-1" />
			<input>
				<port id="0" precision="I64">
					<dim>-1</dim>
					<dim>1</dim>
					<dim>256</dim>
					<dim>1</dim>
				</port>
				<port id="1" precision="I64">
					<dim>-1</dim>
					<dim>1</dim>
					<dim>256</dim>
					<dim>1</dim>
				</port>
				<port id="2" precision="I64">
					<dim>-1</dim>
					<dim>1</dim>
					<dim>256</dim>
					<dim>1</dim>
				</port>
			</input>
			<output>
				<port id="3" precision="I64" names="/Concat_8_output_0">
					<dim>-1</dim>
					<dim>1</dim>
					<dim>256</dim>
					<dim>3</dim>
				</port>
			</output>
		</layer>
		<layer id="182" name="Constant_58051" type="Const" version="opset1">
			<data element_type="i64" shape="2" offset="1800" size="16" />
			<rt_info>
				<attribute name="precise" version="0" />
			</rt_info>
			<output>
				<port id="0" precision="I64">
					<dim>2</dim>
				</port>
			</output>
		</layer>
		<layer id="183" name="Constant_58049" type="Const" version="opset1">
			<data element_type="i64" shape="" offset="512" size="8" />
			<rt_info>
				<attribute name="precise" version="0" />
			</rt_info>
			<output>
				<port id="0" precision="I64" />
			</output>
		</layer>
		<layer id="184" name="/Shape_25" type="Gather" version="opset1">
			<input>
				<port id="0" precision="I64">
					<dim>3</dim>
				</port>
				<port id="1" precision="I64">
					<dim>2</dim>
				</port>
				<port id="2" precision="I64" />
			</input>
			<output>
				<port id="3" precision="I64" names="/Shape_25_output_0">
					<dim>2</dim>
				</port>
			</output>
		</layer>
		<layer id="185" name="/Expand_12" type="Broadcast" version="opset3">
			<data mode="bidirectional" />
			<input>
				<port id="0" precision="FP32">
					<dim>-1</dim>
					<dim>256</dim>
				</port>
				<port id="1" precision="I64">
					<dim>2</dim>
				</port>
			</input>
			<output>
				<port id="2" precision="FP32" names="/Expand_12_output_0">
					<dim>-1</dim>
					<dim>256</dim>
				</port>
			</output>
		</layer>
		<layer id="186" name="Constant_58482" type="Const" version="opset1">
			<data element_type="i64" shape="3" offset="1816" size="24" />
			<rt_info>
				<attribute name="precise" version="0" />
			</rt_info>
			<output>
				<port id="0" precision="I64">
					<dim>3</dim>
				</port>
			</output>
		</layer>
		<layer id="187" name="/Reshape_10" type="Reshape" version="opset1">
			<data special_zero="true" />
			<input>
				<port id="0" precision="FP32">
					<dim>-1</dim>
					<dim>256</dim>
				</port>
				<port id="1" precision="I64">
					<dim>3</dim>
				</port>
			</input>
			<output>
				<port id="2" precision="FP32" names="/Reshape_10_output_0">
					<dim>-1</dim>
					<dim>1</dim>
					<dim>256</dim>
				</port>
			</output>
		</layer>
		<layer id="188" name="/ScatterND_3" type="ScatterNDUpdate" version="opset4">
			<input>
				<port id="0" precision="FP32">
					<dim>-1</dim>
					<dim>2</dim>
					<dim>256</dim>
				</port>
				<port id="1" precision="I64">
					<dim>-1</dim>
					<dim>1</dim>
					<dim>256</dim>
					<dim>3</dim>
				</port>
				<port id="2" precision="FP32">
					<dim>-1</dim>
					<dim>1</dim>
					<dim>256</dim>
				</port>
			</input>
			<output>
				<port id="3" precision="FP32" names="/ScatterND_3_output_0">
					<dim>-1</dim>
					<dim>2</dim>
					<dim>256</dim>
				</port>
			</output>
		</layer>
		<layer id="189" name="Constant_58284" type="Const" version="opset1">
			<data element_type="i64" shape="1, 1, 1" offset="626" size="8" />
			<output>
				<port id="0" precision="I64">
					<dim>1</dim>
					<dim>1</dim>
					<dim>1</dim>
				</port>
			</output>
		</layer>
		<layer id="190" name="/Add_11" type="Add" version="opset1">
			<data auto_broadcast="numpy" />
			<input>
				<port id="0" precision="I64">
					<dim>-1</dim>
					<dim>1</dim>
					<dim>1</dim>
				</port>
				<port id="1" precision="I64">
					<dim>1</dim>
					<dim>1</dim>
					<dim>1</dim>
				</port>
			</input>
			<output>
				<port id="2" precision="I64" names="/Add_11_output_0,/Add_13_output_0">
					<dim>-1</dim>
					<dim>1</dim>
					<dim>1</dim>
				</port>
			</output>
		</layer>
		<layer id="191" name="/Constant_90" type="Const" version="opset1">
			<data element_type="i64" shape="" offset="512" size="8" />
			<output>
				<port id="0" precision="I64" names="/Constant_90_output_0" />
			</output>
		</layer>
		<layer id="192" name="/Shape_34" type="ShapeOf" version="opset3">
			<data output_type="i64" />
			<input>
				<port id="0" precision="FP32">
					<dim>-1</dim>
					<dim>2</dim>
					<dim>256</dim>
				</port>
			</input>
			<output>
				<port id="1" precision="I64" names="/Shape_34_output_0,/Shape_35_output_0,/Shape_40_output_0">
					<dim>3</dim>
				</port>
			</output>
		</layer>
		<layer id="193" name="/Constant_89" type="Const" version="opset1">
			<data element_type="i64" shape="" offset="722" size="8" />
			<output>
				<port id="0" precision="I64" names="/Constant_89_output_0" />
			</output>
		</layer>
		<layer id="194" name="Constant_54637" type="Const" version="opset1">
			<data element_type="i64" shape="" offset="512" size="8" />
			<output>
				<port id="0" precision="I64" />
			</output>
		</layer>
		<layer id="195" name="/Gather_17" type="Gather" version="opset8">
			<data batch_dims="0" />
			<input>
				<port id="0" precision="I64">
					<dim>3</dim>
				</port>
				<port id="1" precision="I64" />
				<port id="2" precision="I64" />
			</input>
			<output>
				<port id="3" precision="I64" names="/Cast_10_output_0,/Gather_17_output_0" />
			</output>
		</layer>
		<layer id="196" name="/Constant_91" type="Const" version="opset1">
			<data element_type="i64" shape="" offset="626" size="8" />
			<output>
				<port id="0" precision="I64" names="/Constant_91_output_0" />
			</output>
		</layer>
		<layer id="197" name="/Range_9" type="Range" version="opset4">
			<data output_type="i64" />
			<input>
				<port id="0" precision="I64" />
				<port id="1" precision="I64" />
				<port id="2" precision="I64" />
			</input>
			<output>
				<port id="3" precision="I64" names="/Range_9_output_0">
					<dim>256</dim>
				</port>
			</output>
		</layer>
		<layer id="198" name="/Add_12" type="Add" version="opset1">
			<data auto_broadcast="numpy" />
			<input>
				<port id="0" precision="I64">
					<dim>-1</dim>
					<dim>1</dim>
					<dim>1</dim>
				</port>
				<port id="1" precision="I64">
					<dim>256</dim>
				</port>
			</input>
			<output>
				<port id="2" precision="I64" names="/Add_12_output_0">
					<dim>-1</dim>
					<dim>1</dim>
					<dim>256</dim>
				</port>
			</output>
		</layer>
		<layer id="199" name="/Shape_36" type="ShapeOf" version="opset3">
			<data output_type="i64" />
			<input>
				<port id="0" precision="I64">
					<dim>-1</dim>
					<dim>1</dim>
					<dim>256</dim>
				</port>
			</input>
			<output>
				<port id="1" precision="I64" names="/Concat_11_output_0,/Shape_36_output_0">
					<dim>3</dim>
				</port>
			</output>
		</layer>
		<layer id="200" name="/Mul_14" type="Const" version="opset1">
			<data element_type="i64" shape="3" offset="674" size="24" />
			<rt_info>
				<attribute name="precise" version="0" />
			</rt_info>
			<output>
				<port id="0" precision="I64" names="/Mul_14_output_0,/Mul_15_output_0,/Mul_16_output_0">
					<dim>3</dim>
				</port>
			</output>
		</layer>
		<layer id="201" name="/Equal_12" type="Equal" version="opset1">
			<data auto_broadcast="numpy" />
			<input>
				<port id="0" precision="I64">
					<dim>3</dim>
				</port>
				<port id="1" precision="I64">
					<dim>3</dim>
				</port>
			</input>
			<output>
				<port id="2" precision="BOOL" names="/Equal_12_output_0,/Equal_13_output_0,/Equal_14_output_0">
					<dim>3</dim>
				</port>
			</output>
		</layer>
		<layer id="202" name="/ConstantOfShape_13" type="Const" version="opset1">
			<data element_type="i64" shape="3" offset="698" size="24" />
			<rt_info>
				<attribute name="precise" version="0" />
			</rt_info>
			<output>
				<port id="0" precision="I64" names="/ConstantOfShape_13_output_0,/ConstantOfShape_14_output_0,/ConstantOfShape_15_output_0">
					<dim>3</dim>
				</port>
			</output>
		</layer>
		<layer id="203" name="/Where_12" type="Select" version="opset1">
			<data auto_broadcast="numpy" />
			<input>
				<port id="0" precision="BOOL">
					<dim>3</dim>
				</port>
				<port id="1" precision="I64">
					<dim>3</dim>
				</port>
				<port id="2" precision="I64">
					<dim>3</dim>
				</port>
			</input>
			<output>
				<port id="3" precision="I64" names="/Where_12_output_0,/Where_13_output_0,/Where_14_output_0">
					<dim>3</dim>
				</port>
			</output>
		</layer>
		<layer id="204" name="/Expand_17" type="Broadcast" version="opset3">
			<data mode="bidirectional" />
			<input>
				<port id="0" precision="I64">
					<dim>-1</dim>
					<dim>1</dim>
					<dim>1</dim>
				</port>
				<port id="1" precision="I64">
					<dim>3</dim>
				</port>
			</input>
			<output>
				<port id="2" precision="I64" names="/Expand_17_output_0">
					<dim>-1</dim>
					<dim>1</dim>
					<dim>256</dim>
				</port>
			</output>
		</layer>
		<layer id="205" name="/Constant_96" type="Const" version="opset1">
			<data element_type="i64" shape="1" offset="520" size="8" />
			<output>
				<port id="0" precision="I64" names="/Constant_96_output_0">
					<dim>1</dim>
				</port>
			</output>
		</layer>
		<layer id="206" name="/Unsqueeze_13" type="Unsqueeze" version="opset1">
			<input>
				<port id="0" precision="I64">
					<dim>-1</dim>
					<dim>1</dim>
					<dim>256</dim>
				</port>
				<port id="1" precision="I64">
					<dim>1</dim>
				</port>
			</input>
			<output>
				<port id="2" precision="I64" names="/Unsqueeze_13_output_0">
					<dim>-1</dim>
					<dim>1</dim>
					<dim>256</dim>
					<dim>1</dim>
				</port>
			</output>
		</layer>
		<layer id="207" name="/Constant_93" type="Const" version="opset1">
			<data element_type="i64" shape="1, 1" offset="626" size="8" />
			<output>
				<port id="0" precision="I64" names="/Constant_93_output_0">
					<dim>1</dim>
					<dim>1</dim>
				</port>
			</output>
		</layer>
		<layer id="208" name="/Expand_18" type="Broadcast" version="opset3">
			<data mode="bidirectional" />
			<input>
				<port id="0" precision="I64">
					<dim>1</dim>
					<dim>1</dim>
				</port>
				<port id="1" precision="I64">
					<dim>3</dim>
				</port>
			</input>
			<output>
				<port id="2" precision="I64" names="/Expand_18_output_0">
					<dim>-1</dim>
					<dim>1</dim>
					<dim>256</dim>
				</port>
			</output>
		</layer>
		<layer id="209" name="/Constant_98" type="Const" version="opset1">
			<data element_type="i64" shape="1" offset="520" size="8" />
			<output>
				<port id="0" precision="I64" names="/Constant_98_output_0">
					<dim>1</dim>
				</port>
			</output>
		</layer>
		<layer id="210" name="/Unsqueeze_14" type="Unsqueeze" version="opset1">
			<input>
				<port id="0" precision="I64">
					<dim>-1</dim>
					<dim>1</dim>
					<dim>256</dim>
				</port>
				<port id="1" precision="I64">
					<dim>1</dim>
				</port>
			</input>
			<output>
				<port id="2" precision="I64" names="/Unsqueeze_14_output_0">
					<dim>-1</dim>
					<dim>1</dim>
					<dim>256</dim>
					<dim>1</dim>
				</port>
			</output>
		</layer>
		<layer id="211" name="/Expand_19" type="Broadcast" version="opset3">
			<data mode="bidirectional" />
			<input>
				<port id="0" precision="I64">
					<dim>256</dim>
				</port>
				<port id="1" precision="I64">
					<dim>3</dim>
				</port>
			</input>
			<output>
				<port id="2" precision="I64" names="/Expand_19_output_0">
					<dim>-1</dim>
					<dim>1</dim>
					<dim>256</dim>
				</port>
			</output>
		</layer>
		<layer id="212" name="/Constant_100" type="Const" version="opset1">
			<data element_type="i64" shape="1" offset="520" size="8" />
			<output>
				<port id="0" precision="I64" names="/Constant_100_output_0">
					<dim>1</dim>
				</port>
			</output>
		</layer>
		<layer id="213" name="/Unsqueeze_15" type="Unsqueeze" version="opset1">
			<input>
				<port id="0" precision="I64">
					<dim>-1</dim>
					<dim>1</dim>
					<dim>256</dim>
				</port>
				<port id="1" precision="I64">
					<dim>1</dim>
				</port>
			</input>
			<output>
				<port id="2" precision="I64" names="/Unsqueeze_15_output_0">
					<dim>-1</dim>
					<dim>1</dim>
					<dim>256</dim>
					<dim>1</dim>
				</port>
			</output>
		</layer>
		<layer id="214" name="/Concat_10" type="Concat" version="opset1">
			<data axis="-1" />
			<input>
				<port id="0" precision="I64">
					<dim>-1</dim>
					<dim>1</dim>
					<dim>256</dim>
					<dim>1</dim>
				</port>
				<port id="1" precision="I64">
					<dim>-1</dim>
					<dim>1</dim>
					<dim>256</dim>
					<dim>1</dim>
				</port>
				<port id="2" precision="I64">
					<dim>-1</dim>
					<dim>1</dim>
					<dim>256</dim>
					<dim>1</dim>
				</port>
			</input>
			<output>
				<port id="3" precision="I64" names="/Concat_10_output_0">
					<dim>-1</dim>
					<dim>1</dim>
					<dim>256</dim>
					<dim>3</dim>
				</port>
			</output>
		</layer>
		<layer id="215" name="Constant_54613" type="Const" version="opset1">
			<data element_type="i64" shape="" offset="626" size="8" />
			<output>
				<port id="0" precision="I64" />
			</output>
		</layer>
		<layer id="216" name="/Gather_15" type="Gather" version="opset8">
			<data batch_dims="0" />
			<input>
				<port id="0" precision="FP32">
					<dim>-1</dim>
					<dim>2</dim>
					<dim>256</dim>
				</port>
				<port id="1" precision="I64" />
				<port id="2" precision="I64" />
			</input>
			<output>
				<port id="3" precision="FP32" names="/Gather_15_output_0">
					<dim>-1</dim>
					<dim>256</dim>
				</port>
			</output>
		</layer>
		<layer id="217" name="point_embeddings.3.weight_compressed" type="Const" version="opset1">
			<data element_type="f16" shape="1, 256" offset="1840" size="512" />
			<output>
				<port id="0" precision="FP16" names="point_embeddings.3.weight">
					<dim>1</dim>
					<dim>256</dim>
				</port>
			</output>
		</layer>
		<layer id="218" name="point_embeddings.3.weight" type="Convert" version="opset1">
			<data destination_type="f32" />
			<rt_info>
				<attribute name="decompression" version="0" />
			</rt_info>
			<input>
				<port id="0" precision="FP16">
					<dim>1</dim>
					<dim>256</dim>
				</port>
			</input>
			<output>
				<port id="1" precision="FP32">
					<dim>1</dim>
					<dim>256</dim>
				</port>
			</output>
		</layer>
		<layer id="219" name="/Add_10" type="Add" version="opset1">
			<data auto_broadcast="numpy" />
			<input>
				<port id="0" precision="FP32">
					<dim>-1</dim>
					<dim>256</dim>
				</port>
				<port id="1" precision="FP32">
					<dim>1</dim>
					<dim>256</dim>
				</port>
			</input>
			<output>
				<port id="2" precision="FP32" names="/Add_10_output_0">
					<dim>-1</dim>
					<dim>256</dim>
				</port>
			</output>
		</layer>
		<layer id="220" name="Constant_58055" type="Const" version="opset1">
			<data element_type="i64" shape="2" offset="1800" size="16" />
			<rt_info>
				<attribute name="precise" version="0" />
			</rt_info>
			<output>
				<port id="0" precision="I64">
					<dim>2</dim>
				</port>
			</output>
		</layer>
		<layer id="221" name="Constant_58053" type="Const" version="opset1">
			<data element_type="i64" shape="" offset="512" size="8" />
			<rt_info>
				<attribute name="precise" version="0" />
			</rt_info>
			<output>
				<port id="0" precision="I64" />
			</output>
		</layer>
		<layer id="222" name="/Shape_33" type="Gather" version="opset1">
			<input>
				<port id="0" precision="I64">
					<dim>3</dim>
				</port>
				<port id="1" precision="I64">
					<dim>2</dim>
				</port>
				<port id="2" precision="I64" />
			</input>
			<output>
				<port id="3" precision="I64" names="/Shape_33_output_0">
					<dim>2</dim>
				</port>
			</output>
		</layer>
		<layer id="223" name="/Expand_16" type="Broadcast" version="opset3">
			<data mode="bidirectional" />
			<input>
				<port id="0" precision="FP32">
					<dim>-1</dim>
					<dim>256</dim>
				</port>
				<port id="1" precision="I64">
					<dim>2</dim>
				</port>
			</input>
			<output>
				<port id="2" precision="FP32" names="/Expand_16_output_0">
					<dim>-1</dim>
					<dim>256</dim>
				</port>
			</output>
		</layer>
		<layer id="224" name="Constant_58483" type="Const" version="opset1">
			<data element_type="i64" shape="3" offset="1816" size="24" />
			<rt_info>
				<attribute name="precise" version="0" />
			</rt_info>
			<output>
				<port id="0" precision="I64">
					<dim>3</dim>
				</port>
			</output>
		</layer>
		<layer id="225" name="/Reshape_12" type="Reshape" version="opset1">
			<data special_zero="true" />
			<input>
				<port id="0" precision="FP32">
					<dim>-1</dim>
					<dim>256</dim>
				</port>
				<port id="1" precision="I64">
					<dim>3</dim>
				</port>
			</input>
			<output>
				<port id="2" precision="FP32" names="/Reshape_12_output_0">
					<dim>-1</dim>
					<dim>1</dim>
					<dim>256</dim>
				</port>
			</output>
		</layer>
		<layer id="226" name="/ScatterND_4" type="ScatterNDUpdate" version="opset4">
			<input>
				<port id="0" precision="FP32">
					<dim>-1</dim>
					<dim>2</dim>
					<dim>256</dim>
				</port>
				<port id="1" precision="I64">
					<dim>-1</dim>
					<dim>1</dim>
					<dim>256</dim>
					<dim>3</dim>
				</port>
				<port id="2" precision="FP32">
					<dim>-1</dim>
					<dim>1</dim>
					<dim>256</dim>
				</port>
			</input>
			<output>
				<port id="3" precision="FP32" names="/ScatterND_4_output_0">
					<dim>-1</dim>
					<dim>2</dim>
					<dim>256</dim>
				</port>
			</output>
		</layer>
		<layer id="227" name="/Constant_108" type="Const" version="opset1">
			<data element_type="i64" shape="" offset="512" size="8" />
			<output>
				<port id="0" precision="I64" names="/Constant_108_output_0" />
			</output>
		</layer>
		<layer id="228" name="/Shape_42" type="ShapeOf" version="opset3">
			<data output_type="i64" />
			<input>
				<port id="0" precision="FP32">
					<dim>-1</dim>
					<dim>2</dim>
					<dim>256</dim>
				</port>
			</input>
			<output>
				<port id="1" precision="I64" names="/Shape_42_output_0,/Shape_43_output_0,/Shape_48_output_0">
					<dim>3</dim>
				</port>
			</output>
		</layer>
		<layer id="229" name="/Constant_107" type="Const" version="opset1">
			<data element_type="i64" shape="" offset="722" size="8" />
			<output>
				<port id="0" precision="I64" names="/Constant_107_output_0" />
			</output>
		</layer>
		<layer id="230" name="Constant_54772" type="Const" version="opset1">
			<data element_type="i64" shape="" offset="512" size="8" />
			<output>
				<port id="0" precision="I64" />
			</output>
		</layer>
		<layer id="231" name="/Gather_20" type="Gather" version="opset8">
			<data batch_dims="0" />
			<input>
				<port id="0" precision="I64">
					<dim>3</dim>
				</port>
				<port id="1" precision="I64" />
				<port id="2" precision="I64" />
			</input>
			<output>
				<port id="3" precision="I64" names="/Cast_12_output_0,/Gather_20_output_0" />
			</output>
		</layer>
		<layer id="232" name="/Constant_109" type="Const" version="opset1">
			<data element_type="i64" shape="" offset="626" size="8" />
			<output>
				<port id="0" precision="I64" names="/Constant_109_output_0" />
			</output>
		</layer>
		<layer id="233" name="/Range_11" type="Range" version="opset4">
			<data output_type="i64" />
			<input>
				<port id="0" precision="I64" />
				<port id="1" precision="I64" />
				<port id="2" precision="I64" />
			</input>
			<output>
				<port id="3" precision="I64" names="/Range_11_output_0">
					<dim>256</dim>
				</port>
			</output>
		</layer>
		<layer id="234" name="/Add_14" type="Add" version="opset1">
			<data auto_broadcast="numpy" />
			<input>
				<port id="0" precision="I64">
					<dim>-1</dim>
					<dim>1</dim>
					<dim>1</dim>
				</port>
				<port id="1" precision="I64">
					<dim>256</dim>
				</port>
			</input>
			<output>
				<port id="2" precision="I64" names="/Add_14_output_0">
					<dim>-1</dim>
					<dim>1</dim>
					<dim>256</dim>
				</port>
			</output>
		</layer>
		<layer id="235" name="/Shape_44" type="ShapeOf" version="opset3">
			<data output_type="i64" />
			<input>
				<port id="0" precision="I64">
					<dim>-1</dim>
					<dim>1</dim>
					<dim>256</dim>
				</port>
			</input>
			<output>
				<port id="1" precision="I64" names="/Concat_13_output_0,/Shape_44_output_0">
					<dim>3</dim>
				</port>
			</output>
		</layer>
		<layer id="236" name="/Mul_17" type="Const" version="opset1">
			<data element_type="i64" shape="3" offset="674" size="24" />
			<rt_info>
				<attribute name="precise" version="0" />
			</rt_info>
			<output>
				<port id="0" precision="I64" names="/Mul_17_output_0,/Mul_18_output_0,/Mul_19_output_0">
					<dim>3</dim>
				</port>
			</output>
		</layer>
		<layer id="237" name="/Equal_15" type="Equal" version="opset1">
			<data auto_broadcast="numpy" />
			<input>
				<port id="0" precision="I64">
					<dim>3</dim>
				</port>
				<port id="1" precision="I64">
					<dim>3</dim>
				</port>
			</input>
			<output>
				<port id="2" precision="BOOL" names="/Equal_15_output_0,/Equal_16_output_0,/Equal_17_output_0">
					<dim>3</dim>
				</port>
			</output>
		</layer>
		<layer id="238" name="/ConstantOfShape_16" type="Const" version="opset1">
			<data element_type="i64" shape="3" offset="698" size="24" />
			<rt_info>
				<attribute name="precise" version="0" />
			</rt_info>
			<output>
				<port id="0" precision="I64" names="/ConstantOfShape_16_output_0,/ConstantOfShape_17_output_0,/ConstantOfShape_18_output_0">
					<dim>3</dim>
				</port>
			</output>
		</layer>
		<layer id="239" name="/Where_15" type="Select" version="opset1">
			<data auto_broadcast="numpy" />
			<input>
				<port id="0" precision="BOOL">
					<dim>3</dim>
				</port>
				<port id="1" precision="I64">
					<dim>3</dim>
				</port>
				<port id="2" precision="I64">
					<dim>3</dim>
				</port>
			</input>
			<output>
				<port id="3" precision="I64" names="/Where_15_output_0,/Where_16_output_0,/Where_17_output_0">
					<dim>3</dim>
				</port>
			</output>
		</layer>
		<layer id="240" name="/Expand_21" type="Broadcast" version="opset3">
			<data mode="bidirectional" />
			<input>
				<port id="0" precision="I64">
					<dim>-1</dim>
					<dim>1</dim>
					<dim>1</dim>
				</port>
				<port id="1" precision="I64">
					<dim>3</dim>
				</port>
			</input>
			<output>
				<port id="2" precision="I64" names="/Expand_21_output_0">
					<dim>-1</dim>
					<dim>1</dim>
					<dim>256</dim>
				</port>
			</output>
		</layer>
		<layer id="241" name="/Constant_114" type="Const" version="opset1">
			<data element_type="i64" shape="1" offset="520" size="8" />
			<output>
				<port id="0" precision="I64" names="/Constant_114_output_0">
					<dim>1</dim>
				</port>
			</output>
		</layer>
		<layer id="242" name="/Unsqueeze_16" type="Unsqueeze" version="opset1">
			<input>
				<port id="0" precision="I64">
					<dim>-1</dim>
					<dim>1</dim>
					<dim>256</dim>
				</port>
				<port id="1" precision="I64">
					<dim>1</dim>
				</port>
			</input>
			<output>
				<port id="2" precision="I64" names="/Unsqueeze_16_output_0">
					<dim>-1</dim>
					<dim>1</dim>
					<dim>256</dim>
					<dim>1</dim>
				</port>
			</output>
		</layer>
		<layer id="243" name="/Constant_111" type="Const" version="opset1">
			<data element_type="i64" shape="1, 1" offset="626" size="8" />
			<output>
				<port id="0" precision="I64" names="/Constant_111_output_0">
					<dim>1</dim>
					<dim>1</dim>
				</port>
			</output>
		</layer>
		<layer id="244" name="/Expand_22" type="Broadcast" version="opset3">
			<data mode="bidirectional" />
			<input>
				<port id="0" precision="I64">
					<dim>1</dim>
					<dim>1</dim>
				</port>
				<port id="1" precision="I64">
					<dim>3</dim>
				</port>
			</input>
			<output>
				<port id="2" precision="I64" names="/Expand_22_output_0">
					<dim>-1</dim>
					<dim>1</dim>
					<dim>256</dim>
				</port>
			</output>
		</layer>
		<layer id="245" name="/Constant_116" type="Const" version="opset1">
			<data element_type="i64" shape="1" offset="520" size="8" />
			<output>
				<port id="0" precision="I64" names="/Constant_116_output_0">
					<dim>1</dim>
				</port>
			</output>
		</layer>
		<layer id="246" name="/Unsqueeze_17" type="Unsqueeze" version="opset1">
			<input>
				<port id="0" precision="I64">
					<dim>-1</dim>
					<dim>1</dim>
					<dim>256</dim>
				</port>
				<port id="1" precision="I64">
					<dim>1</dim>
				</port>
			</input>
			<output>
				<port id="2" precision="I64" names="/Unsqueeze_17_output_0">
					<dim>-1</dim>
					<dim>1</dim>
					<dim>256</dim>
					<dim>1</dim>
				</port>
			</output>
		</layer>
		<layer id="247" name="/Expand_23" type="Broadcast" version="opset3">
			<data mode="bidirectional" />
			<input>
				<port id="0" precision="I64">
					<dim>256</dim>
				</port>
				<port id="1" precision="I64">
					<dim>3</dim>
				</port>
			</input>
			<output>
				<port id="2" precision="I64" names="/Expand_23_output_0">
					<dim>-1</dim>
					<dim>1</dim>
					<dim>256</dim>
				</port>
			</output>
		</layer>
		<layer id="248" name="/Constant_118" type="Const" version="opset1">
			<data element_type="i64" shape="1" offset="520" size="8" />
			<output>
				<port id="0" precision="I64" names="/Constant_118_output_0">
					<dim>1</dim>
				</port>
			</output>
		</layer>
		<layer id="249" name="/Unsqueeze_18" type="Unsqueeze" version="opset1">
			<input>
				<port id="0" precision="I64">
					<dim>-1</dim>
					<dim>1</dim>
					<dim>256</dim>
				</port>
				<port id="1" precision="I64">
					<dim>1</dim>
				</port>
			</input>
			<output>
				<port id="2" precision="I64" names="/Unsqueeze_18_output_0">
					<dim>-1</dim>
					<dim>1</dim>
					<dim>256</dim>
					<dim>1</dim>
				</port>
			</output>
		</layer>
		<layer id="250" name="/Concat_12" type="Concat" version="opset1">
			<data axis="-1" />
			<input>
				<port id="0" precision="I64">
					<dim>-1</dim>
					<dim>1</dim>
					<dim>256</dim>
					<dim>1</dim>
				</port>
				<port id="1" precision="I64">
					<dim>-1</dim>
					<dim>1</dim>
					<dim>256</dim>
					<dim>1</dim>
				</port>
				<port id="2" precision="I64">
					<dim>-1</dim>
					<dim>1</dim>
					<dim>256</dim>
					<dim>1</dim>
				</port>
			</input>
			<output>
				<port id="3" precision="I64" names="/Concat_12_output_0">
					<dim>-1</dim>
					<dim>1</dim>
					<dim>256</dim>
					<dim>3</dim>
				</port>
			</output>
		</layer>
		<layer id="251" name="Constant_58059" type="Const" version="opset1">
			<data element_type="i64" shape="2" offset="1800" size="16" />
			<rt_info>
				<attribute name="precise" version="0" />
			</rt_info>
			<output>
				<port id="0" precision="I64">
					<dim>2</dim>
				</port>
			</output>
		</layer>
		<layer id="252" name="Constant_58057" type="Const" version="opset1">
			<data element_type="i64" shape="" offset="512" size="8" />
			<rt_info>
				<attribute name="precise" version="0" />
			</rt_info>
			<output>
				<port id="0" precision="I64" />
			</output>
		</layer>
		<layer id="253" name="/Shape_41" type="Gather" version="opset1">
			<input>
				<port id="0" precision="I64">
					<dim>3</dim>
				</port>
				<port id="1" precision="I64">
					<dim>2</dim>
				</port>
				<port id="2" precision="I64" />
			</input>
			<output>
				<port id="3" precision="I64" names="/Shape_41_output_0">
					<dim>2</dim>
				</port>
			</output>
		</layer>
		<layer id="254" name="/Expand_20" type="Broadcast" version="opset3">
			<data mode="bidirectional" />
			<input>
				<port id="0" precision="FP32">
					<dim>-1</dim>
					<dim>256</dim>
				</port>
				<port id="1" precision="I64">
					<dim>2</dim>
				</port>
			</input>
			<output>
				<port id="2" precision="FP32" names="/Expand_20_output_0">
					<dim>-1</dim>
					<dim>256</dim>
				</port>
			</output>
		</layer>
		<layer id="255" name="Constant_58484" type="Const" version="opset1">
			<data element_type="i64" shape="3" offset="1816" size="24" />
			<rt_info>
				<attribute name="precise" version="0" />
			</rt_info>
			<output>
				<port id="0" precision="I64">
					<dim>3</dim>
				</port>
			</output>
		</layer>
		<layer id="256" name="/Reshape_14" type="Reshape" version="opset1">
			<data special_zero="true" />
			<input>
				<port id="0" precision="FP32">
					<dim>-1</dim>
					<dim>256</dim>
				</port>
				<port id="1" precision="I64">
					<dim>3</dim>
				</port>
			</input>
			<output>
				<port id="2" precision="FP32" names="/Reshape_14_output_0">
					<dim>-1</dim>
					<dim>1</dim>
					<dim>256</dim>
				</port>
			</output>
		</layer>
		<layer id="257" name="sparse_embeddings" type="ScatterNDUpdate" version="opset4">
			<input>
				<port id="0" precision="FP32">
					<dim>-1</dim>
					<dim>2</dim>
					<dim>256</dim>
				</port>
				<port id="1" precision="I64">
					<dim>-1</dim>
					<dim>1</dim>
					<dim>256</dim>
					<dim>3</dim>
				</port>
				<port id="2" precision="FP32">
					<dim>-1</dim>
					<dim>1</dim>
					<dim>256</dim>
				</port>
			</input>
			<output>
				<port id="3" precision="FP32" names="/ScatterND_5_output_0,sparse_embeddings">
					<dim>-1</dim>
					<dim>2</dim>
					<dim>256</dim>
				</port>
			</output>
		</layer>
		<layer id="258" name="sparse_embeddings/sink_port_0" type="Result" version="opset1">
			<input>
				<port id="0" precision="FP32">
					<dim>-1</dim>
					<dim>2</dim>
					<dim>256</dim>
				</port>
			</input>
		</layer>
		<layer id="16" name="dense_embeddings/sink_port_0" type="Result" version="opset1">
			<input>
				<port id="0" precision="FP32">
					<dim>-1</dim>
					<dim>256</dim>
					<dim>64</dim>
					<dim>64</dim>
				</port>
			</input>
		</layer>
	</layers>
	<edges>
		<edge from-layer="0" from-port="0" to-layer="3" to-port="0" />
		<edge from-layer="0" from-port="0" to-layer="19" to-port="0" />
		<edge from-layer="1" from-port="0" to-layer="2" to-port="0" />
		<edge from-layer="2" from-port="1" to-layer="15" to-port="0" />
		<edge from-layer="3" from-port="1" to-layer="6" to-port="0" />
		<edge from-layer="4" from-port="0" to-layer="6" to-port="1" />
		<edge from-layer="5" from-port="0" to-layer="6" to-port="2" />
		<edge from-layer="6" from-port="3" to-layer="10" to-port="0" />
		<edge from-layer="7" from-port="0" to-layer="10" to-port="1" />
		<edge from-layer="8" from-port="0" to-layer="10" to-port="2" />
		<edge from-layer="9" from-port="0" to-layer="10" to-port="3" />
		<edge from-layer="10" from-port="4" to-layer="12" to-port="0" />
		<edge from-layer="10" from-port="4" to-layer="14" to-port="2" />
		<edge from-layer="11" from-port="0" to-layer="12" to-port="1" />
		<edge from-layer="12" from-port="2" to-layer="14" to-port="0" />
		<edge from-layer="13" from-port="0" to-layer="14" to-port="1" />
		<edge from-layer="14" from-port="3" to-layer="15" to-port="1" />
		<edge from-layer="15" from-port="2" to-layer="16" to-port="0" />
		<edge from-layer="17" from-port="0" to-layer="18" to-port="0" />
		<edge from-layer="18" from-port="1" to-layer="19" to-port="1" />
		<edge from-layer="19" from-port="2" to-layer="21" to-port="0" />
		<edge from-layer="20" from-port="0" to-layer="21" to-port="1" />
		<edge from-layer="21" from-port="2" to-layer="23" to-port="0" />
		<edge from-layer="21" from-port="2" to-layer="68" to-port="0" />
		<edge from-layer="21" from-port="2" to-layer="58" to-port="0" />
		<edge from-layer="22" from-port="0" to-layer="28" to-port="0" />
		<edge from-layer="23" from-port="1" to-layer="64" to-port="0" />
		<edge from-layer="23" from-port="1" to-layer="34" to-port="0" />
		<edge from-layer="23" from-port="1" to-layer="26" to-port="0" />
		<edge from-layer="24" from-port="0" to-layer="26" to-port="1" />
		<edge from-layer="25" from-port="0" to-layer="26" to-port="2" />
		<edge from-layer="26" from-port="3" to-layer="28" to-port="1" />
		<edge from-layer="27" from-port="0" to-layer="28" to-port="2" />
		<edge from-layer="28" from-port="3" to-layer="30" to-port="0" />
		<edge from-layer="29" from-port="0" to-layer="30" to-port="1" />
		<edge from-layer="30" from-port="2" to-layer="78" to-port="0" />
		<edge from-layer="30" from-port="2" to-layer="165" to-port="0" />
		<edge from-layer="30" from-port="2" to-layer="171" to-port="0" />
		<edge from-layer="30" from-port="2" to-layer="190" to-port="0" />
		<edge from-layer="30" from-port="2" to-layer="204" to-port="0" />
		<edge from-layer="30" from-port="2" to-layer="240" to-port="0" />
		<edge from-layer="30" from-port="2" to-layer="135" to-port="0" />
		<edge from-layer="30" from-port="2" to-layer="129" to-port="0" />
		<edge from-layer="30" from-port="2" to-layer="86" to-port="0" />
		<edge from-layer="30" from-port="2" to-layer="45" to-port="0" />
		<edge from-layer="30" from-port="2" to-layer="39" to-port="0" />
		<edge from-layer="31" from-port="0" to-layer="36" to-port="0" />
		<edge from-layer="32" from-port="0" to-layer="34" to-port="1" />
		<edge from-layer="33" from-port="0" to-layer="34" to-port="2" />
		<edge from-layer="34" from-port="3" to-layer="36" to-port="1" />
		<edge from-layer="35" from-port="0" to-layer="36" to-port="2" />
		<edge from-layer="36" from-port="3" to-layer="38" to-port="0" />
		<edge from-layer="37" from-port="0" to-layer="38" to-port="1" />
		<edge from-layer="38" from-port="2" to-layer="48" to-port="0" />
		<edge from-layer="38" from-port="2" to-layer="39" to-port="1" />
		<edge from-layer="39" from-port="2" to-layer="40" to-port="0" />
		<edge from-layer="40" from-port="1" to-layer="44" to-port="2" />
		<edge from-layer="40" from-port="1" to-layer="42" to-port="0" />
		<edge from-layer="41" from-port="0" to-layer="42" to-port="1" />
		<edge from-layer="42" from-port="2" to-layer="44" to-port="0" />
		<edge from-layer="43" from-port="0" to-layer="44" to-port="1" />
		<edge from-layer="44" from-port="3" to-layer="52" to-port="1" />
		<edge from-layer="44" from-port="3" to-layer="48" to-port="1" />
		<edge from-layer="44" from-port="3" to-layer="45" to-port="1" />
		<edge from-layer="45" from-port="2" to-layer="47" to-port="0" />
		<edge from-layer="46" from-port="0" to-layer="47" to-port="1" />
		<edge from-layer="47" from-port="2" to-layer="55" to-port="0" />
		<edge from-layer="48" from-port="2" to-layer="50" to-port="0" />
		<edge from-layer="49" from-port="0" to-layer="50" to-port="1" />
		<edge from-layer="50" from-port="2" to-layer="55" to-port="1" />
		<edge from-layer="51" from-port="0" to-layer="52" to-port="0" />
		<edge from-layer="52" from-port="2" to-layer="54" to-port="0" />
		<edge from-layer="53" from-port="0" to-layer="54" to-port="1" />
		<edge from-layer="54" from-port="2" to-layer="55" to-port="2" />
		<edge from-layer="55" from-port="3" to-layer="68" to-port="1" />
		<edge from-layer="56" from-port="0" to-layer="58" to-port="1" />
		<edge from-layer="56" from-port="0" to-layer="147" to-port="1" />
		<edge from-layer="57" from-port="0" to-layer="58" to-port="2" />
		<edge from-layer="58" from-port="3" to-layer="61" to-port="0" />
		<edge from-layer="59" from-port="0" to-layer="60" to-port="0" />
		<edge from-layer="60" from-port="1" to-layer="61" to-port="1" />
		<edge from-layer="61" from-port="2" to-layer="65" to-port="0" />
		<edge from-layer="62" from-port="0" to-layer="64" to-port="1" />
		<edge from-layer="63" from-port="0" to-layer="64" to-port="2" />
		<edge from-layer="64" from-port="3" to-layer="65" to-port="1" />
		<edge from-layer="65" from-port="2" to-layer="67" to-port="0" />
		<edge from-layer="66" from-port="0" to-layer="67" to-port="1" />
		<edge from-layer="67" from-port="2" to-layer="68" to-port="2" />
		<edge from-layer="68" from-port="3" to-layer="109" to-port="0" />
		<edge from-layer="68" from-port="3" to-layer="99" to-port="0" />
		<edge from-layer="68" from-port="3" to-layer="70" to-port="0" />
		<edge from-layer="69" from-port="0" to-layer="75" to-port="0" />
		<edge from-layer="70" from-port="1" to-layer="73" to-port="0" />
		<edge from-layer="70" from-port="1" to-layer="105" to-port="0" />
		<edge from-layer="71" from-port="0" to-layer="73" to-port="1" />
		<edge from-layer="72" from-port="0" to-layer="73" to-port="2" />
		<edge from-layer="73" from-port="3" to-layer="75" to-port="1" />
		<edge from-layer="74" from-port="0" to-layer="75" to-port="2" />
		<edge from-layer="75" from-port="3" to-layer="77" to-port="0" />
		<edge from-layer="76" from-port="0" to-layer="77" to-port="1" />
		<edge from-layer="77" from-port="2" to-layer="89" to-port="0" />
		<edge from-layer="77" from-port="2" to-layer="78" to-port="1" />
		<edge from-layer="78" from-port="2" to-layer="80" to-port="0" />
		<edge from-layer="79" from-port="0" to-layer="80" to-port="1" />
		<edge from-layer="80" from-port="2" to-layer="81" to-port="0" />
		<edge from-layer="81" from-port="1" to-layer="83" to-port="0" />
		<edge from-layer="81" from-port="1" to-layer="85" to-port="2" />
		<edge from-layer="82" from-port="0" to-layer="83" to-port="1" />
		<edge from-layer="83" from-port="2" to-layer="85" to-port="0" />
		<edge from-layer="84" from-port="0" to-layer="85" to-port="1" />
		<edge from-layer="85" from-port="3" to-layer="93" to-port="1" />
		<edge from-layer="85" from-port="3" to-layer="86" to-port="1" />
		<edge from-layer="85" from-port="3" to-layer="89" to-port="1" />
		<edge from-layer="86" from-port="2" to-layer="88" to-port="0" />
		<edge from-layer="87" from-port="0" to-layer="88" to-port="1" />
		<edge from-layer="88" from-port="2" to-layer="96" to-port="0" />
		<edge from-layer="89" from-port="2" to-layer="91" to-port="0" />
		<edge from-layer="90" from-port="0" to-layer="91" to-port="1" />
		<edge from-layer="91" from-port="2" to-layer="96" to-port="1" />
		<edge from-layer="92" from-port="0" to-layer="93" to-port="0" />
		<edge from-layer="93" from-port="2" to-layer="95" to-port="0" />
		<edge from-layer="94" from-port="0" to-layer="95" to-port="1" />
		<edge from-layer="95" from-port="2" to-layer="96" to-port="2" />
		<edge from-layer="96" from-port="3" to-layer="109" to-port="1" />
		<edge from-layer="97" from-port="0" to-layer="216" to-port="1" />
		<edge from-layer="97" from-port="0" to-layer="99" to-port="1" />
		<edge from-layer="98" from-port="0" to-layer="99" to-port="2" />
		<edge from-layer="99" from-port="3" to-layer="102" to-port="0" />
		<edge from-layer="100" from-port="0" to-layer="101" to-port="0" />
		<edge from-layer="101" from-port="1" to-layer="102" to-port="1" />
		<edge from-layer="102" from-port="2" to-layer="106" to-port="0" />
		<edge from-layer="103" from-port="0" to-layer="105" to-port="1" />
		<edge from-layer="104" from-port="0" to-layer="105" to-port="2" />
		<edge from-layer="105" from-port="3" to-layer="106" to-port="1" />
		<edge from-layer="106" from-port="2" to-layer="108" to-port="0" />
		<edge from-layer="107" from-port="0" to-layer="108" to-port="1" />
		<edge from-layer="108" from-port="2" to-layer="109" to-port="2" />
		<edge from-layer="109" from-port="3" to-layer="112" to-port="0" />
		<edge from-layer="110" from-port="0" to-layer="111" to-port="0" />
		<edge from-layer="111" from-port="1" to-layer="112" to-port="1" />
		<edge from-layer="112" from-port="2" to-layer="115" to-port="0" />
		<edge from-layer="113" from-port="0" to-layer="114" to-port="0" />
		<edge from-layer="114" from-port="1" to-layer="115" to-port="1" />
		<edge from-layer="115" from-port="2" to-layer="118" to-port="0" />
		<edge from-layer="116" from-port="0" to-layer="117" to-port="0" />
		<edge from-layer="117" from-port="1" to-layer="118" to-port="1" />
		<edge from-layer="118" from-port="2" to-layer="119" to-port="0" />
		<edge from-layer="118" from-port="2" to-layer="120" to-port="0" />
		<edge from-layer="119" from-port="1" to-layer="121" to-port="0" />
		<edge from-layer="120" from-port="1" to-layer="121" to-port="1" />
		<edge from-layer="121" from-port="2" to-layer="147" to-port="0" />
		<edge from-layer="121" from-port="2" to-layer="157" to-port="0" />
		<edge from-layer="121" from-port="2" to-layer="123" to-port="0" />
		<edge from-layer="122" from-port="0" to-layer="128" to-port="0" />
		<edge from-layer="123" from-port="1" to-layer="126" to-port="0" />
		<edge from-layer="123" from-port="1" to-layer="153" to-port="0" />
		<edge from-layer="124" from-port="0" to-layer="126" to-port="1" />
		<edge from-layer="125" from-port="0" to-layer="126" to-port="2" />
		<edge from-layer="126" from-port="3" to-layer="128" to-port="1" />
		<edge from-layer="127" from-port="0" to-layer="128" to-port="2" />
		<edge from-layer="128" from-port="3" to-layer="142" to-port="0" />
		<edge from-layer="128" from-port="3" to-layer="129" to-port="1" />
		<edge from-layer="129" from-port="2" to-layer="130" to-port="0" />
		<edge from-layer="130" from-port="1" to-layer="134" to-port="2" />
		<edge from-layer="130" from-port="1" to-layer="132" to-port="0" />
		<edge from-layer="131" from-port="0" to-layer="132" to-port="1" />
		<edge from-layer="132" from-port="2" to-layer="134" to-port="0" />
		<edge from-layer="133" from-port="0" to-layer="134" to-port="1" />
		<edge from-layer="134" from-port="3" to-layer="135" to-port="1" />
		<edge from-layer="134" from-port="3" to-layer="139" to-port="1" />
		<edge from-layer="134" from-port="3" to-layer="142" to-port="1" />
		<edge from-layer="135" from-port="2" to-layer="137" to-port="0" />
		<edge from-layer="136" from-port="0" to-layer="137" to-port="1" />
		<edge from-layer="137" from-port="2" to-layer="145" to-port="0" />
		<edge from-layer="138" from-port="0" to-layer="139" to-port="0" />
		<edge from-layer="139" from-port="2" to-layer="141" to-port="0" />
		<edge from-layer="140" from-port="0" to-layer="141" to-port="1" />
		<edge from-layer="141" from-port="2" to-layer="145" to-port="1" />
		<edge from-layer="142" from-port="2" to-layer="144" to-port="0" />
		<edge from-layer="143" from-port="0" to-layer="144" to-port="1" />
		<edge from-layer="144" from-port="2" to-layer="145" to-port="2" />
		<edge from-layer="145" from-port="3" to-layer="157" to-port="1" />
		<edge from-layer="146" from-port="0" to-layer="147" to-port="2" />
		<edge from-layer="147" from-port="3" to-layer="150" to-port="0" />
		<edge from-layer="148" from-port="0" to-layer="149" to-port="0" />
		<edge from-layer="149" from-port="1" to-layer="150" to-port="1" />
		<edge from-layer="150" from-port="2" to-layer="185" to-port="0" />
		<edge from-layer="150" from-port="2" to-layer="154" to-port="0" />
		<edge from-layer="151" from-port="0" to-layer="153" to-port="1" />
		<edge from-layer="152" from-port="0" to-layer="153" to-port="2" />
		<edge from-layer="153" from-port="3" to-layer="154" to-port="1" />
		<edge from-layer="154" from-port="2" to-layer="156" to-port="0" />
		<edge from-layer="155" from-port="0" to-layer="156" to-port="1" />
		<edge from-layer="156" from-port="2" to-layer="157" to-port="2" />
		<edge from-layer="157" from-port="3" to-layer="159" to-port="0" />
		<edge from-layer="157" from-port="3" to-layer="188" to-port="0" />
		<edge from-layer="158" from-port="0" to-layer="164" to-port="0" />
		<edge from-layer="159" from-port="1" to-layer="184" to-port="0" />
		<edge from-layer="159" from-port="1" to-layer="162" to-port="0" />
		<edge from-layer="160" from-port="0" to-layer="162" to-port="1" />
		<edge from-layer="161" from-port="0" to-layer="162" to-port="2" />
		<edge from-layer="162" from-port="3" to-layer="164" to-port="1" />
		<edge from-layer="163" from-port="0" to-layer="164" to-port="2" />
		<edge from-layer="164" from-port="3" to-layer="165" to-port="1" />
		<edge from-layer="164" from-port="3" to-layer="178" to-port="0" />
		<edge from-layer="165" from-port="2" to-layer="166" to-port="0" />
		<edge from-layer="166" from-port="1" to-layer="170" to-port="2" />
		<edge from-layer="166" from-port="1" to-layer="168" to-port="0" />
		<edge from-layer="167" from-port="0" to-layer="168" to-port="1" />
		<edge from-layer="168" from-port="2" to-layer="170" to-port="0" />
		<edge from-layer="169" from-port="0" to-layer="170" to-port="1" />
		<edge from-layer="170" from-port="3" to-layer="175" to-port="1" />
		<edge from-layer="170" from-port="3" to-layer="178" to-port="1" />
		<edge from-layer="170" from-port="3" to-layer="171" to-port="1" />
		<edge from-layer="171" from-port="2" to-layer="173" to-port="0" />
		<edge from-layer="172" from-port="0" to-layer="173" to-port="1" />
		<edge from-layer="173" from-port="2" to-layer="181" to-port="0" />
		<edge from-layer="174" from-port="0" to-layer="175" to-port="0" />
		<edge from-layer="175" from-port="2" to-layer="177" to-port="0" />
		<edge from-layer="176" from-port="0" to-layer="177" to-port="1" />
		<edge from-layer="177" from-port="2" to-layer="181" to-port="1" />
		<edge from-layer="178" from-port="2" to-layer="180" to-port="0" />
		<edge from-layer="179" from-port="0" to-layer="180" to-port="1" />
		<edge from-layer="180" from-port="2" to-layer="181" to-port="2" />
		<edge from-layer="181" from-port="3" to-layer="188" to-port="1" />
		<edge from-layer="182" from-port="0" to-layer="184" to-port="1" />
		<edge from-layer="183" from-port="0" to-layer="184" to-port="2" />
		<edge from-layer="184" from-port="3" to-layer="185" to-port="1" />
		<edge from-layer="185" from-port="2" to-layer="187" to-port="0" />
		<edge from-layer="186" from-port="0" to-layer="187" to-port="1" />
		<edge from-layer="187" from-port="2" to-layer="188" to-port="2" />
		<edge from-layer="188" from-port="3" to-layer="216" to-port="0" />
		<edge from-layer="188" from-port="3" to-layer="192" to-port="0" />
		<edge from-layer="188" from-port="3" to-layer="226" to-port="0" />
		<edge from-layer="189" from-port="0" to-layer="190" to-port="1" />
		<edge from-layer="190" from-port="2" to-layer="198" to-port="0" />
		<edge from-layer="190" from-port="2" to-layer="234" to-port="0" />
		<edge from-layer="191" from-port="0" to-layer="197" to-port="0" />
		<edge from-layer="192" from-port="1" to-layer="195" to-port="0" />
		<edge from-layer="192" from-port="1" to-layer="222" to-port="0" />
		<edge from-layer="193" from-port="0" to-layer="195" to-port="1" />
		<edge from-layer="194" from-port="0" to-layer="195" to-port="2" />
		<edge from-layer="195" from-port="3" to-layer="197" to-port="1" />
		<edge from-layer="196" from-port="0" to-layer="197" to-port="2" />
		<edge from-layer="197" from-port="3" to-layer="211" to-port="0" />
		<edge from-layer="197" from-port="3" to-layer="198" to-port="1" />
		<edge from-layer="198" from-port="2" to-layer="199" to-port="0" />
		<edge from-layer="199" from-port="1" to-layer="203" to-port="2" />
		<edge from-layer="199" from-port="1" to-layer="201" to-port="0" />
		<edge from-layer="200" from-port="0" to-layer="201" to-port="1" />
		<edge from-layer="201" from-port="2" to-layer="203" to-port="0" />
		<edge from-layer="202" from-port="0" to-layer="203" to-port="1" />
		<edge from-layer="203" from-port="3" to-layer="208" to-port="1" />
		<edge from-layer="203" from-port="3" to-layer="204" to-port="1" />
		<edge from-layer="203" from-port="3" to-layer="211" to-port="1" />
		<edge from-layer="204" from-port="2" to-layer="206" to-port="0" />
		<edge from-layer="205" from-port="0" to-layer="206" to-port="1" />
		<edge from-layer="206" from-port="2" to-layer="214" to-port="0" />
		<edge from-layer="207" from-port="0" to-layer="208" to-port="0" />
		<edge from-layer="208" from-port="2" to-layer="210" to-port="0" />
		<edge from-layer="209" from-port="0" to-layer="210" to-port="1" />
		<edge from-layer="210" from-port="2" to-layer="214" to-port="1" />
		<edge from-layer="211" from-port="2" to-layer="213" to-port="0" />
		<edge from-layer="212" from-port="0" to-layer="213" to-port="1" />
		<edge from-layer="213" from-port="2" to-layer="214" to-port="2" />
		<edge from-layer="214" from-port="3" to-layer="226" to-port="1" />
		<edge from-layer="215" from-port="0" to-layer="216" to-port="2" />
		<edge from-layer="216" from-port="3" to-layer="219" to-port="0" />
		<edge from-layer="217" from-port="0" to-layer="218" to-port="0" />
		<edge from-layer="218" from-port="1" to-layer="219" to-port="1" />
		<edge from-layer="219" from-port="2" to-layer="223" to-port="0" />
		<edge from-layer="219" from-port="2" to-layer="254" to-port="0" />
		<edge from-layer="220" from-port="0" to-layer="222" to-port="1" />
		<edge from-layer="221" from-port="0" to-layer="222" to-port="2" />
		<edge from-layer="222" from-port="3" to-layer="223" to-port="1" />
		<edge from-layer="223" from-port="2" to-layer="225" to-port="0" />
		<edge from-layer="224" from-port="0" to-layer="225" to-port="1" />
		<edge from-layer="225" from-port="2" to-layer="226" to-port="2" />
		<edge from-layer="226" from-port="3" to-layer="228" to-port="0" />
		<edge from-layer="226" from-port="3" to-layer="257" to-port="0" />
		<edge from-layer="227" from-port="0" to-layer="233" to-port="0" />
		<edge from-layer="228" from-port="1" to-layer="231" to-port="0" />
		<edge from-layer="228" from-port="1" to-layer="253" to-port="0" />
		<edge from-layer="229" from-port="0" to-layer="231" to-port="1" />
		<edge from-layer="230" from-port="0" to-layer="231" to-port="2" />
		<edge from-layer="231" from-port="3" to-layer="233" to-port="1" />
		<edge from-layer="232" from-port="0" to-layer="233" to-port="2" />
		<edge from-layer="233" from-port="3" to-layer="234" to-port="1" />
		<edge from-layer="233" from-port="3" to-layer="247" to-port="0" />
		<edge from-layer="234" from-port="2" to-layer="235" to-port="0" />
		<edge from-layer="235" from-port="1" to-layer="237" to-port="0" />
		<edge from-layer="235" from-port="1" to-layer="239" to-port="2" />
		<edge from-layer="236" from-port="0" to-layer="237" to-port="1" />
		<edge from-layer="237" from-port="2" to-layer="239" to-port="0" />
		<edge from-layer="238" from-port="0" to-layer="239" to-port="1" />
		<edge from-layer="239" from-port="3" to-layer="240" to-port="1" />
		<edge from-layer="239" from-port="3" to-layer="244" to-port="1" />
		<edge from-layer="239" from-port="3" to-layer="247" to-port="1" />
		<edge from-layer="240" from-port="2" to-layer="242" to-port="0" />
		<edge from-layer="241" from-port="0" to-layer="242" to-port="1" />
		<edge from-layer="242" from-port="2" to-layer="250" to-port="0" />
		<edge from-layer="243" from-port="0" to-layer="244" to-port="0" />
		<edge from-layer="244" from-port="2" to-layer="246" to-port="0" />
		<edge from-layer="245" from-port="0" to-layer="246" to-port="1" />
		<edge from-layer="246" from-port="2" to-layer="250" to-port="1" />
		<edge from-layer="247" from-port="2" to-layer="249" to-port="0" />
		<edge from-layer="248" from-port="0" to-layer="249" to-port="1" />
		<edge from-layer="249" from-port="2" to-layer="250" to-port="2" />
		<edge from-layer="250" from-port="3" to-layer="257" to-port="1" />
		<edge from-layer="251" from-port="0" to-layer="253" to-port="1" />
		<edge from-layer="252" from-port="0" to-layer="253" to-port="2" />
		<edge from-layer="253" from-port="3" to-layer="254" to-port="1" />
		<edge from-layer="254" from-port="2" to-layer="256" to-port="0" />
		<edge from-layer="255" from-port="0" to-layer="256" to-port="1" />
		<edge from-layer="256" from-port="2" to-layer="257" to-port="2" />
		<edge from-layer="257" from-port="3" to-layer="258" to-port="0" />
	</edges>
	<rt_info>
		<Runtime_version value="2024.3.0-16041-1e3b88e4e3f-releases/2024/3" />
		<conversion_parameters>
			<input_model value="DIR/prompt_encoder.onnx" />
			<is_python_object value="False" />
		</conversion_parameters>
	</rt_info>
</net>
